classic_model/EEGnet/k_cross_CNN.pt (torch, 22267 bytes, 17 tensors)

weight f4 [8, 1, 1, 64]
0	0x3cd6aaff	0.026204584
1	0x3cba4ef4	0.022742726
2	0xbd8a808c	-0.067627996
3	0x3db66a25	0.08906964
4	0x3c01761c	0.007901695
5	0x3e25c885	0.16189773
6	0x3e5c0c2e	0.21489021
7	0x3e04fbd9	0.12986697
8	0x3ccd7939	0.025082218
9	0xbd46fbfc	-0.048580155
10	0x3c8e38d5	0.017361084
11	0x3d29d93d	0.04146694
12	0x3dfe8861	0.12428356
13	0x3bda7a89	0.0066674394
14	0x3d602af8	0.05472848
15	0xbd7dddf7	-0.06197926
16	0xbce8752a	-0.02837618
17	0xbdc51f8d	-0.096251585
18	0xbe227bd3	-0.15867548
19	0xbdbe4fe9	-0.092925854
20	0xbd107631	-0.035268966
21	0xbddff3de	-0.10935186
22	0x3db01d47	0.08599334
23	0x3d82f355	0.06394068
24	0x3db5047f	0.08838748
25	0x3dc82d11	0.09774221
26	0x3d656e08	0.056013137
27	0xbe7d4650	-0.24733853
28	0xbe8d7250	-0.27626276
29	0xbee96730	-0.45586538
30	0xbe8239fe	-0.2543487
31	0xbeadfeb0	-0.33983374
32	0xbc53aeed	-0.0129201235
33	0xbdfbfb02	-0.12303735
34	0xbc9e534b	-0.019326827
35	0xbd4a759a	-0.04942856
36	0xbda26450	-0.07929289
37	0xbe82181b	-0.25409016
38	0xbdac5e4c	-0.08416423
39	0xbb35a13e	-0.0027714516
40	0xbbe46222	-0.006969706
41	0x3e040d83	0.1289578
42	0x3df4d051	0.11953796
43	0xbcab0b40	-0.020879388
44	0xbe4c3c26	-0.1994482
45	0xbdfaa19d	-0.122378565
46	0xbe84fb8b	-0.25973162
47	0xbe43bbb1	-0.19114567
48	0xbeef16af	-0.46696994
49	0xbf0dac22	-0.5534078
50	0xbf0ad202	-0.54226696
51	0xbeeab58f	-0.45841643
52	0xbe8ed9ca	-0.27900535
53	0xbe8e80d1	-0.27832654
54	0xbe1211e3	-0.14264636
55	0x3dfbfa90	0.123036504
56	0x3e229f37	0.15881048
57	0x3debf66c	0.115216106
58	0x3e82fc8b	0.255833
59	0x3e81f46b	0.2538179
60	0x3d83a098	0.06427115
61	0x3d4834db	0.048878532
62	0xbd62ab38	-0.05533907
63	0x3cc6306c	0.024193011
64	0xbe157d9c	-0.14598697
65	0xbd791b8f	-0.060817298
66	0x3e0f9794	0.14022666
67	0x3ea395ab	0.31950125
68	0x3e2f09a9	0.17093529
69	0x3e8236ce	0.25432438
70	0xbc121f73	-0.008918631
71	0xbe21c31d	-0.15797086
72	0xbdd1fca0	-0.102532625
73	0xbea4b1f9	-0.32167032
74	0xbe63fa65	-0.22263487
75	0xbe642545	-0.22279842
76	0xbe8fc89f	-0.2808275
77	0xbc81916d	-0.015816415
78	0xbcf4be24	-0.029875822
79	0xbd1dbbec	-0.038509294
80	0x3df6f19c	0.12057802
81	0x3e1ae0ee	0.15124866
82	0x3d284d8b	0.041089576
83	0x3e6fcecc	0.2341873
84	0x3ddb24d0	0.10700381
85	0x3b99eb16	0.004697214
86	0xbdd2b64b	-0.10288676
87	0xbe132760	-0.14370489
88	0xbe0df47f	-0.13862799
89	0xbd9fbdaf	-0.07799851
90	0xbe51bd9d	-0.20482488
91	0xbe32500e	-0.17413351
92	0xbe4aeac6	-0.19816121
93	0xbd9107fd	-0.07081602
94	0xbd0cabb8	-0.03434345
95	0x3e09bac4	0.13450152
96	0x3e3be944	0.18350703
97	0x3e67c132	0.22632292
98	0x3e9b2cca	0.3030761
99	0x3eaed4db	0.3414677
100	0x3e8f6723	0.28008375
101	0x3e2abad5	0.16672833
102	0x3e152e84	0.14568526
103	0xbdd7ed67	-0.10543328
104	0xbe9fab60	-0.31185436
105	0xbebe6534	-0.37186587
106	0xbee07c19	-0.4384468
107	0xbec6f9c4	-0.3886243
108	0xbe4d3636	-0.20040211
109	0xbdf57e20	-0.11986947
110	0x3ddec346	0.10877089
111	0x3e33769f	0.17525719
112	0x3ec9df46	0.39428157
113	0x3e94d258	0.2906673
114	0x3ecb1e1a	0.39671403
115	0x3dfe9d04	0.12432292
116	0x3d24b535	0.040211875
117	0xbbf4597d	-0.007456957
118	0xbe80307b	-0.25036988
119	0xbe9dddd6	-0.3083331
120	0xbeab0f63	-0.33410177
121	0xbeaddb3f	-0.33956334
122	0xbea3e859	-0.32013205
123	0xbe9f4d62	-0.31113726
124	0xbe1b0401	-0.15138246
125	0x3d475004	0.048660293
126	0x3e1db553	0.15401201
127	0x3ee4e703	0.44707498
128	0xbdd1de45	-0.10247473
129	0x3d468631	0.04846782
130	0x3ea6eb4d	0.32601395
131	0x3e5b9508	0.2144357
132	0xbb8ba93d	-0.004262118
133	0xbe013ae9	-0.12620129
134	0xbe1f959d	-0.15584417
135	0xbed4988a	-0.41522628
136	0xbea9ba68	-0.3315003
137	0xbcf60ec3	-0.030036336
138	0x3e290f05	0.16509636
139	0x3dfe286a	0.12410052
140	0x3e8d3125	0.27576557
141	0xbd1abf34	-0.03778
142	0xbea50a5b	-0.32234463
143	0xbe8f21ec	-0.27955568
144	0xbe98567b	-0.2975348
145	0xbeb95dcd	-0.36204377
146	0xbe63754b	-0.22212712
147	0x3d1ec000	0.038757324
148	0xbcd0a5b5	-0.02546964
149	0x3c55e3df	0.013054817
150	0x3e001efe	0.12511823
151	0x3dd1aedf	0.10238432
152	0x3e39872e	0.18117973
153	0x3e3590c8	0.17731011
154	0xbc9e7dde	-0.019347128
155	0x3dce2a0e	0.10066615
156	0xbdf0cc3a	-0.11757703
157	0xbe44f773	-0.1923502
158	0xbe84b075	-0.25915876
159	0xbe2cc1bb	-0.16870777
160	0xbd01edb4	-0.031720832
161	0x3e73dda9	0.23815025
162	0x3e890901	0.26764682
163	0x3e9d9db2	0.30784374
164	0x3d8d9c35	0.0691456
165	0xbe125726	-0.14291057
166	0xbe8d34db	-0.27579388
167	0xbed4204c	-0.4143089
168	0xbece4c0e	-0.402924
169	0xbda65300	-0.081213
170	0xbdab9553	-0.08378091
171	0x3e89766c	0.2684816
172	0x3ec59989	0.385937
173	0x3ec814a5	0.3907825
174	0x3e37d641	0.17952825
175	0x3da492ae	0.080357894
176	0xbdf17c87	-0.1179133
177	0xbdbf7473	-0.09348383
178	0x3d917368	0.0710209
179	0x3d325fa9	0.04354826
180	0x3e174a32	0.14774397
181	0x3e83f051	0.25769284
182	0x3e5f1dfa	0.21788779
183	0x3e978cec	0.29599702
184	0x3dea0595	0.11426846
185	0x3e35fff1	0.17773415
186	0x3d30063e	0.042974703
187	0x3d87e478	0.06635374
188	0xbd3e9622	-0.046529897
189	0xbcfd7427	-0.030939175
190	0x3d6d7dab	0.057981174
191	0x3e3025f7	0.17201982
192	0x3d3cd294	0.04609926
193	0x3d5e84bb	0.0543258
194	0xbdaf6eee	-0.0856608
195	0xbd14e2b3	-0.03634901
196	0xbe330a75	-0.17484458
197	0xbe8ee777	-0.2791097
198	0xbe691cd0	-0.22764897
199	0xbe3bfe90	-0.18358827
200	0xb9ecf8e3	-0.00045198863
201	0x3cd7d775	0.026347855
202	0x3e5bd692	0.21468571
203	0x3e748f78	0.23882854
204	0x3e241404	0.1602326
205	0xbd9c00ad	-0.076173164
206	0x3da1b49f	0.07895779
207	0x3d19125b	0.03737102
208	0xbdd4cca0	-0.103905916
209	0xbdc1566e	-0.09440313
210	0xbe4ec614	-0.20192748
211	0xbe40ea19	-0.18839301
212	0xbe47e292	-0.19520023
213	0xbde8899e	-0.113543734
214	0xbe178b80	-0.14799309
215	0x3d7e438a	0.06207613
216	0x3e31d1e9	0.1736523
217	0x3e869fc4	0.26293766
218	0x3ea1fad1	0.3163667
219	0x3e9ce123	0.30640516
220	0x3df98694	0.12183872
221	0x3e815755	0.25261942
222	0x3e4b75f1	0.1986921
223	0xbd4b1905	-0.049584407
224	0x3d7e2eea	0.06205646
225	0xbe45edb2	-0.19328955
226	0xbea2463b	-0.31694207
227	0xbf025db4	-0.5092423
228	0xbef830d1	-0.48474744
229	0xbe90f4fb	-0.28311905
230	0xbde060d8	-0.109559715
231	0xbc3f1c14	-0.011664409
232	0xbdac9db4	-0.08428517
233	0xbc2250d0	-0.0099069625
234	0x3df8e1de	0.12152456
235	0x3e873418	0.26406932
236	0x3e516633	0.20449142
237	0x3df59b87	0.11992555
238	0xbe07f2ff	-0.1327629
239	0xbe9e12ed	-0.30873814
240	0xbe43f88a	-0.19137779
241	0xbe75a53c	-0.23988813
242	0xbe667e26	-0.2250906
243	0xbea0dc2c	-0.31417978
244	0xbe4e0ab1	-0.20121266
245	0xbe91a647	-0.28447172
246	0xbe52b780	-0.20577812
247	0xbd864d87	-0.06557756
248	0x3cfa27b5	0.030536512
249	0x3c621f68	0.013801433
250	0x3e35be15	0.17748292
251	0x3e3cae2c	0.18425816
252	0x3da6ecc3	0.081506275
253	0xbcac411c	-0.02102714
254	0xbc9f460d	-0.019442583
255	0xbd188038	-0.037231654

weight f4 [8]
0	0x3f6d90dc	0.9279916
1	0x3f8264c5	1.0187002
2	0x3f82735a	1.0191453
3	0x3f781978	0.9691386
4	0x3f85be16	1.0448635
5	0x3f5d53b4	0.86455846
6	0x3f62c89a	0.88587344
7	0x3f89e605	1.0773321

bias f4 [8]
0	0x3b0be2f4	0.0021344991
1	0xbb4e4d33	-0.003147912
2	0xbadc2ee6	-0.0016798645
3	0x3b0710ff	0.0020609496
4	0x3ab27dba	0.0013617792
5	0xb9fa5225	-0.00047744918
6	0xba802625	-0.0009776993
7	0xb901f17e	-0.00012392362

running_mean f4 [8]
0	0xaeba27b9	-8.465357e-11
1	0x308c9156	1.0227648e-09
2	0x3052f68b	7.6747914e-10
3	0xb039c026	-6.757567e-10
4	0xaf98e6c0	-2.7812597e-10
5	0x2e700c96	5.458086e-11
6	0xaf540557	-1.9283185e-10
7	0xb064d705	-8.325148e-10

running_var f4 [8]
0	0x414a3dc5	12.64008
1	0x405b6468	3.4280033
2	0x402f6133	2.7403076
3	0x40be0556	5.9381514
4	0x4059aab3	3.4010437
5	0x4100fcf8	8.06176
6	0x41145637	9.271049
7	0x405f5779	3.489714

weight f4 [16, 1, 22, 1]
0	0xbe426048	-0.18982041
1	0x3cf0c370	0.029390067
2	0xbe0d9468	-0.13826144
3	0xbe38e7d7	-0.1805719
4	0xbda6fe4b	-0.08153971
5	0xbed13090	-0.40857363
6	0x3d78daae	0.060755424
7	0x3e095c9d	0.13414235
8	0xbd84930a	-0.06473358
9	0xbd092e3c	-0.03349136
10	0x3cd2ec74	0.025747515
11	0x3d9222f9	0.07135577
12	0x3d462b6a	0.048381247
13	0xbaf95cc4	-0.0019024839
14	0xbe905d6f	-0.28196284
15	0xbcb73ebf	-0.022368787
16	0xbb30397d	-0.0026889734
17	0xbdfa4081	-0.122193344
18	0xbe0e16e0	-0.13875914
19	0x3f42be1a	0.7607132
20	0x3f1d7f33	0.61522216
21	0x3d0bf23b	0.034166556
22	0x3e9ac546	0.30228633
23	0x3e208ae3	0.15677981
24	0x3c2e5833	0.0106411455
25	0x3d1b3586	0.03789284
26	0x3d2a1e6f	0.04153293
27	0x3d956138	0.07293934
28	0x3bfba8e1	0.007680044
29	0x3d84f9d8	0.064929664
30	0x3d041f0f	0.032256182
31	0xbe818e98	-0.25304103
32	0xbd499778	-0.049216717
33	0x3db5fbfc	0.08885953
34	0xbe062622	-0.13100484
35	0x3e58ccf6	0.21171936
36	0xbd833225	-0.06406049
37	0xbafc4a76	-0.0019248265
38	0xbf1bab6a	-0.6080843
39	0xbe3cf2aa	-0.18451944
40	0xbd150667	-0.03638306
41	0xbca7a567	-0.020464612
42	0xbefe43c9	-0.4966109
43	0x3d275b08	0.0408583
44	0x3de2a8fc	0.110673875
45	0x3e17ed31	0.14836575
46	0xbe6ab2f0	-0.22919822
47	0xbe5d80e4	-0.21631199
48	0xbe60e82d	-0.21963568
49	0x3d20910e	0.039200835
50	0xbd7763b4	-0.06039782
51	0xbda7f736	-0.082014486
52	0x3d2dae1d	0.042402375
53	0xbe1800af	-0.14844011
54	0xbdd5e63c	-0.10444304
55	0xbca67127	-0.020317627
56	0xbe08fdd2	-0.13378075
57	0x3d949516	0.072549984
58	0xbdf0c084	-0.117554694
59	0xbe8a957f	-0.2706718
60	0x3ec10fd3	0.37707385
61	0x3e9dc4ca	0.308142
62	0xbe078244	-0.13233286
63	0xbd280e47	-0.04102924
64	0x3ee9f0e5	0.456916
65	0x3f2d8a4a	0.6778914
66	0xbe96cdde	-0.2945394
67	0xbe06ad28	-0.13151991
68	0xbe82279d	-0.25420848
69	0xbe04bf1e	-0.1296353
70	0xbe0eaea2	-0.13933805
71	0xbea3c099	-0.31982878
72	0xbda7f6b7	-0.08201354
73	0xbe68f866	-0.22751006
74	0xbe72a585	-0.23695953
75	0xbeae4d3e	-0.34043306
76	0xbef3aaa8	-0.47591138
77	0xbe491020	-0.19635057
78	0xbd96f3c3	-0.073707126
79	0xbe85c8bf	-0.2612972
80	0xbe767264	-0.24067074
81	0xbdd0908c	-0.1018382
82	0x3dff2bb3	0.12459507
83	0x3ea1ebd6	0.3162524
84	0xbdc43631	-0.09580649
85	0x3dc9ae88	0.09847742
86	0x3ea20170	0.31641722
87	0x3f2e0ee7	0.6799149
88	0xbe1c0924	-0.15237862
89	0xbd8b786b	-0.06810077
90	0xbe8b3e51	-0.2719598
91	0xbda431a4	-0.08017281
92	0xbe07aeda	-0.13250294
93	0xbf01cb52	-0.5070087
94	0xbe0cf990	-0.13767076
95	0x3e77953b	0.2417802
96	0x3e19d7da	0.15023747
97	0xbd9dcc06	-0.0770493
98	0x3e0ac09f	0.13550042
99	0x3e4a2f85	0.1974469
100	0xbd32f87b	-0.043694
101	0xbe831fcd	-0.256102
102	0x3c8a9563	0.016916936
103	0xbd3a0914	-0.045418814
104	0x3d482347	0.048861768
105	0x3f1a1edd	0.60203344
106	0xbda93c9f	-0.08263516
107	0xbbf150cd	-0.0073643685
108	0x3ed8695d	0.42267886
109	0x3f0503b7	0.51958793
110	0xbe80ac7c	-0.25131595
111	0xbe6199c8	-0.22031319
112	0xbdd38e48	-0.10329872
113	0xbe244139	-0.16040505
114	0xbd3b7ca2	-0.045773156
115	0xbe936223	-0.2878581
116	0xbdb0cb63	-0.08632543
117	0x3d327a31	0.043573562
118	0xbe87c174	-0.2651478
119	0x3cc0c57b	0.023531666
120	0x3d72997e	0.059228413
121	0x3f1217f7	0.5706782
122	0x3cf24c2b	0.029577335
123	0xbd24fc6b	-0.040279787
124	0xbd0448bb	-0.032295924
125	0x3eab13da	0.33413583
126	0xbe0ec90f	-0.13943885
127	0x3e8e7562	0.2782393
128	0x3de71513	0.112833165
129	0x3e589f94	0.21154624
130	0x3e82ef82	0.25573355
131	0x3e145e31	0.14489056
132	0xbe514687	-0.2043706
133	0xbdfe23b7	-0.12409156
134	0xbe0b0622	-0.13576558
135	0xbe2aa3d0	-0.16664052
136	0xbe87fd37	-0.26560375
137	0x3cc3aa7e	0.023885008
138	0xbd41a789	-0.047278915
139	0xbed50b32	-0.41610104
140	0xbeba2e29	-0.36363342
141	0xbe9ed722	-0.31023508
142	0xbea656a5	-0.3248798
143	0xbe816d34	-0.25278628
144	0xbd37addb	-0.044843536
145	0xbd830fbd	-0.06399486
146	0xbead0783	-0.33794793
147	0xbd9c5cf1	-0.07634915
148	0xbe2e530c	-0.17023867
149	0x3e34ad35	0.17644198
150	0x3e1b0cc8	0.15141594
151	0x3e783e97	0.24242626
152	0x3e9f9894	0.31171095
153	0x3eca7840	0.39544868
154	0x3e9c97f8	0.30584693
155	0x3df6c9cd	0.12050209
156	0xbe29da3c	-0.16587156
157	0x3e8e2d0c	0.27768743
158	0x3cc377b6	0.023860794
159	0x3f050e88	0.519753
160	0xbd70e3e4	-0.058811083
161	0x3df949b8	0.12172264
162	0x3ece1214	0.40248168
163	0x3eb02ca4	0.34409058
164	0xbd7b3cdd	-0.06133734
165	0x3bfc9f99	0.007709455
166	0xbde6d122	-0.11270358
167	0x3dff677c	0.1247091
168	0xbdbc8d9a	-0.09206696
169	0xbeb698ee	-0.3566355
170	0x3e40982c	0.18808049
171	0x3e04a94d	0.12955208
172	0xbdbc315b	-0.09189101
173	0xbe562f2c	-0.20916432
174	0xbd216252	-0.039400406
175	0x3ec5248a	0.3850444
176	0xbc8c45a2	-0.017123047
177	0xbec96687	-0.39336035
178	0xbe212563	-0.15736918
179	0xbe499125	-0.19684274
180	0x3e099626	0.13436183
181	0xbf0b2799	-0.54357296
182	0x39f92437	0.00047519963
183	0xbe9e0cf4	-0.30869257
184	0xbe922bcc	-0.2854904
185	0xbe59d0df	-0.21271084
186	0xbeed47dd	-0.4634389
187	0x3e01a8eb	0.12662093
188	0xbdc0c7bb	-0.094130956
189	0x3d3f9782	0.04677535
190	0xbc9dfe35	-0.019286254
191	0xbc12cb6a	-0.0089596305
192	0x3d2cdfe9	0.042205725
193	0x3e0503f1	0.12989785
194	0xbdd4e805	-0.10395817
195	0x3cfe2e0c	0.031027816
196	0x3e573e89	0.21019949
197	0x3edfacf2	0.43686634
198	0xbe3c4b87	-0.18388186
199	0xbe26ebb1	-0.16300847
200	0xbbee9ccd	-0.0072818757
201	0xbe08e62b	-0.13369052
202	0xbdaddc0b	-0.084892355
203	0xbee20878	-0.44147086
204	0xbe1e1683	-0.15438275
205	0xbeb5b248	-0.3548758
206	0xbe84a8dd	-0.25910082
207	0xbe5155f1	-0.2044294
208	0xbe739cca	-0.23790279
209	0x3da034b9	0.07822556
210	0xbd42dd10	-0.047574103
211	0xbe9938c3	-0.29926118
212	0xbdac815e	-0.08423112
213	0xbe0c220e	-0.13684866
214	0xbcf8256a	-0.030291278
215	0x3c2f936f	0.010716303
216	0x3ddc3d06	0.10753827
217	0x3d8a42c1	0.067510135
218	0x3e34f206	0.1767045
219	0x3f30018f	0.6875238
220	0x3e0cd62a	0.13753572
221	0x3eae9618	0.34098887
222	0x3ecb3020	0.39685154
223	0xbe359441	-0.17732336
224	0xbe01627a	-0.12635222
225	0xbc036c64	-0.008021448
226	0xbda7d3df	-0.08194708
227	0x3eb90afc	0.36141193
228	0xbaa8dc7e	-0.0012883095
229	0xbe3c383c	-0.18380827
230	0x3de8a78e	0.113600835
231	0xbdd3b527	-0.103372864
232	0x3cc7f409	0.024408357
233	0xbe183212	-0.1486285
234	0xbce47480	-0.027887583
235	0xbef9fc79	-0.48825434
236	0xbe9a6690	-0.30156374
237	0xbe122388	-0.14271367
238	0x3e184a39	0.14872064
239	0xbe9b4465	-0.30325618
240	0xbe66bd1d	-0.22533078
241	0xbd851003	-0.064971946
242	0x3e779df6	0.24181351
243	0x3ea3c383	0.319851
244	0xbebb10c4	-0.3653623
245	0xbf0fbae1	-0.5614453
246	0xbe54cd0c	-0.20781344
247	0x3de12327	0.10993033
248	0x3d6db844	0.058037058
249	0x3e062a1a	0.13101998
250	0x3cc04e57	0.023474855
251	0xbe22b222	-0.15888265
252	0xbe1fd379	-0.15608014
253	0x3d8357b4	0.064132124
254	0x3eadd378	0.339504
255	0xbcc7dde7	-0.024397803

weight f4 [16]
0	0x3f13935a	0.57646716
1	0x3ce1c7bd	0.027561063
2	0x3ef2d71b	0.47429737
3	0x401111c9	2.2667105
4	0x3fa730ff	1.3061827
5	0x3e6e61ae	0.2327945
6	0x3f088dca	0.5334135
7	0x3edbe00a	0.42944366
8	0x3f9a1842	1.2038653
9	0x3fa15b4e	1.2605989
10	0x3e241ad5	0.1602586
11	0x3e3c5003	0.18389897
12	0x3e612269	0.21985783
13	0x3da13607	0.07871633
14	0x3f9c1b25	1.2195784
15	0x3f6fbdcd	0.9364899

bias f4 [16]
0	0xbdcc0e42	-0.09963657
1	0xbcba2c14	-0.022726096
2	0xbdcda58b	-0.100413404
3	0x3db3f74c	0.087874025
4	0xbdf91294	-0.121617466
5	0xbd791447	-0.060810354
6	0xbe3eb16e	-0.18622372
7	0xbde74158	-0.1129176
8	0xbd1d835d	-0.038455356
9	0xbe8caa28	-0.2747357
10	0xbd779596	-0.06044539
11	0xbdda1315	-0.10648171
12	0xbd6c149d	-0.057636846
13	0xbc6505ad	-0.013978404
14	0xbe513185	-0.20429046
15	0xbe72c473	-0.23707752

running_mean f4 [16]
0	0xbcfeb063	-0.031089967
1	0x3cc10912	0.023563895
2	0xbc842762	-0.01613206
3	0xbcb427b2	-0.021991584
4	0x3c405876	0.011739841
5	0x3c298381	0.010346294
6	0xbd2fe5eb	-0.042943876
7	0x3cccb3a3	0.024988001
8	0x3c879e92	0.016555104
9	0x3c9af646	0.01891626
10	0xbc9985b6	-0.018740516
11	0x3c046f96	0.008083245
12	0x3c91c4b4	0.01779399
13	0xbc635cb6	-0.0138770845
14	0x3c86e383	0.016465908
15	0x3cee549e	0.029093083

running_var f4 [16]
0	0x3faec0ad	1.365255
1	0x3f70f4d7	0.94123596
2	0x402a26c1	2.6586154
3	0x408e1ce5	4.441027
4	0x40050a89	2.078768
5	0x3fc43443	1.5328449
6	0x400679ea	2.101191
7	0x3f9ced00	1.2259827
8	0x401d0d8e	2.4539523
9	0x402ccc25	2.69996
10	0x3f9c5208	1.2212534
11	0x3fa79ad3	1.3094124
12	0x3f77ea16	0.9684156
13	0x3f71aba8	0.9440255
14	0x40124ac3	2.285813
15	0x40699af3	3.6500823

weight f4 [16, 1, 1, 16]
0	0xbc5a7cfe	-0.0133354645
1	0x3d808183	0.062747024
2	0xbea7e590	-0.3279233
3	0xbd334d1e	-0.043774717
4	0xbde41c13	-0.11138167
5	0x3d9d5acf	0.07683336
6	0xbecb4cbf	-0.3970699
7	0x3ea018dd	0.3126897
8	0xbe1350b2	-0.14386252
9	0x3e316900	0.1732521
10	0xbd8a8baf	-0.06764924
11	0xbe0156e6	-0.12630805
12	0x3e10d123	0.1414228
13	0x3de7975e	0.11308168
14	0xbe963e48	-0.29344392
15	0x3ebbb53a	0.36661702
16	0xbdad46ee	-0.084607944
17	0x3e1fc304	0.15601736
18	0xbddf0419	-0.108894534
19	0x3d9bb7ae	0.076033935
20	0x3d1c7aa4	0.038202897
21	0xbe484b04	-0.19559866
22	0xbe2774c5	-0.16353138
23	0x3e0842f2	0.13306788
24	0xbd1173a7	-0.035510685
25	0x3e8a89fd	0.27058402
26	0xbd56a3e0	-0.052402377
27	0x3d903c39	0.070427366
28	0xbd8b23a9	-0.06793911
29	0x3e040db7	0.12895857
30	0xbdf17bb1	-0.117911704
31	0x3d07b002	0.03312684
32	0x3dfe0281	0.12402821
33	0x3e54e4c8	0.20790398
34	0xbdd2579b	-0.10270616
35	0x3d3d59a5	0.04622807
36	0x3e25cf81	0.16192438
37	0xbeab0ae7	-0.33406755
38	0xbe8e296a	-0.2776597
39	0x3e8c8b31	0.27449945
40	0xbe9f7767	-0.31145784
41	0x3e680a23	0.22660117
42	0xbdefd612	-0.117107525
43	0xbe47e739	-0.19521798
44	0x3e156889	0.14590658
45	0xbe9d69e6	-0.30744857
46	0x3d8a3466	0.067482755
47	0x3e0a08da	0.13479939
48	0xbe90c6dd	-0.2827672
49	0x3efec842	0.4976216
50	0xbe501eea	-0.20324293
51	0xbea28482	-0.3174172
52	0xbc43c60d	-0.011949074
53	0x3f1573d5	0.5837987
54	0xbe73f4cb	-0.2382385
55	0xbe7eb0c7	-0.24872123
56	0xbe1571e0	-0.14594221
57	0x3e988739	0.29790667
58	0x3e0c1d3d	0.13683029
59	0xbf387df2	-0.7206718
60	0x3e271df8	0.16320026
61	0x3f1592f4	0.5842736
62	0xbe20669d	-0.15664144
63	0xbe3e10b0	-0.18561053
64	0xbe7acd7b	-0.24492447
65	0x3ecbc6bd	0.39800063
66	0xbe8af572	-0.27140385
67	0xbdec623e	-0.11542176
68	0xbd2d79b7	-0.042352404
69	0x3d71bbc6	0.059016965
70	0xbe5caea6	-0.21550998
71	0x3ec37e16	0.38182133
72	0xbee31841	-0.44354442
73	0x3f1ccccd	0.6125
74	0xbeec9c2d	-0.46212903
75	0x3cc7ff51	0.024413737
76	0x3e0d8865	0.13821562
77	0xbe151dc6	-0.14562139
78	0xbd86da6f	-0.06584632
79	0x3deedc38	0.11663097
80	0xbbe34cad	-0.0069366307
81	0x3dd2998e	0.102831945
82	0xbdf1a168	-0.11798364
83	0x3d6631c6	0.05619981
84	0xbdd943e3	-0.106086515
85	0xbdfaa8d5	-0.122392334
86	0xba1fd302	-0.0006096811
87	0x3e26d306	0.16291437
88	0xbd745a35	-0.05965634
89	0x3e9119ec	0.2834009
90	0xbdc83419	-0.09775562
91	0xbe27330f	-0.16328071
92	0xbcf23056	-0.029564064
93	0x3e9768fe	0.2957229
94	0xbd66e4a8	-0.056370407
95	0x3e28a565	0.16469343
96	0xbdc43f8d	-0.09582434
97	0x3d4ebaa9	0.05047098
98	0xbebc44c6	-0.3677122
99	0xbe9586b6	-0.2920434
100	0x3e5ad2bf	0.21369456
101	0x3e429e07	0.19005595
102	0xbebd93d9	-0.3702686
103	0x3d01bc91	0.03167397
104	0x3e6c8a12	0.23099545
105	0xbe0c445a	-0.13697949
106	0xbc85903d	-0.01630413
107	0xbe46744b	-0.193803
108	0x3ecc14e6	0.39859694
109	0x3d82c3b8	0.06384987
110	0xbd8a3477	-0.06748288
111	0xbde43232	-0.111423865
112	0xbdf470f4	-0.119356066
113	0x3eb1c167	0.34717867
114	0x3c1743f8	0.009232514
115	0x3d1ed4b1	0.038777057
116	0xbdd89ce6	-0.10576801
117	0xbe33983b	-0.1753854
118	0x3e595590	0.21224046
119	0x3ca845e3	0.020541137
120	0x3e0cce01	0.13750459
121	0x3e6a6195	0.22888787
122	0x3b813dab	0.003944119
123	0xbe5c10c9	-0.21490778
124	0xbe402846	-0.18765363
125	0x3e93d464	0.2887298
126	0x3cf308f7	0.02966736
127	0x3d883e44	0.06652501
128	0x3d17c326	0.037051342
129	0xbd82cf38	-0.0638718
130	0x3e162d35	0.14665683
131	0x3e9fa4e8	0.311805
132	0xbed1b731	-0.40960076
133	0xbea54d25	-0.3228542
134	0x3f0f9c46	0.5609783
135	0x3e709e78	0.23497951
136	0xbc716c9c	-0.014735367
137	0xbddf72ef	-0.10910594
138	0x3ee3400e	0.44384807
139	0x3d64d736	0.055869304
140	0xbee0790d	-0.43842354
141	0xbe67d6d4	-0.22640544
142	0x3ec29761	0.38006118
143	0x3e1432c0	0.14472485
144	0xbe9966a5	-0.29961124
145	0x3e8e37de	0.27776998
146	0x3e88a8f6	0.26691407
147	0xbeae4e95	-0.34044328
148	0xbd723989	-0.0591369
149	0x3d9f40e9	0.077760525
150	0x3d1f1db6	0.038846694
151	0x3b819543	0.003954561
152	0xbf0118bd	-0.5042837
153	0x3eb9884b	0.36236796
154	0x3e33f9d0	0.17575765
155	0xbefb278b	-0.49053606
156	0x3d158334	0.03650208
157	0x3e565deb	0.20934264
158	0xbd9ae013	-0.0756227
159	0xbde0fbb0	-0.109855056
160	0x3d580b65	0.05274524
161	0x3e0fb179	0.14032544
162	0xbabff43e	-0.0014644933
163	0x3dc56e19	0.0964014
164	0xbe4427a0	-0.1915574
165	0xbd820f65	-0.063505925
166	0xbdc72d40	-0.09725428
167	0x3e713fc6	0.23559484
168	0xbc796fe7	-0.0152244335
169	0x3e92e658	0.28691363
170	0xbe46e0ff	-0.19421767
171	0x3e2f2a8c	0.17106074
172	0x3e015b20	0.12632418
173	0xbdcf5686	-0.10123925
174	0xbd36a9ad	-0.04459541
175	0xbc3ed4e9	-0.011647441
176	0x3e03e977	0.12882029
177	0x3dc3682c	0.095413536
178	0xbdb0964f	-0.08622419
179	0x3e1c044f	0.15236019
180	0xbdfd2913	-0.1236135
181	0xbddbcc35	-0.10732309
182	0xbd0810fe	-0.03321933
183	0xbe4175d2	-0.18892601
184	0x3e226b1a	0.15861169
185	0x3d05ed87	0.032697227
186	0xbe71eb19	-0.23624839
187	0xbded3653	-0.11582627
188	0x3b4aeee1	0.0030965137
189	0xbd8747c7	-0.06605487
190	0xbe220f58	-0.15826166
191	0x3e37ffa7	0.17968617
192	0xbd4d5710	-0.050131857
193	0x3e0685ac	0.1313693
194	0x3d05b543	0.032643568
195	0xbe986aef	-0.29769084
196	0xbe52e95e	-0.20596835
197	0x3e394151	0.18091322
198	0x3d94acdd	0.072595336
199	0xbd08cc68	-0.033398062
200	0xbe50bff6	-0.20385727
201	0x3e57c5d5	0.2107156
202	0xbd9eadc6	-0.077479884
203	0x3daaba18	0.08336276
204	0x3e1dcdca	0.15410534
205	0x3e568f6d	0.2095315
206	0xbe803f48	-0.2504828
207	0x3e068fed	0.13140841
208	0xbe184340	-0.14869404
209	0x3e3f7823	0.18698172
210	0x3e4d2f89	0.20037664
211	0xbcd2d83c	-0.025737874
212	0xbe280928	-0.16409743
213	0xbd3d96db	-0.046286445
214	0xbc9bc506	-0.019014847
215	0x3e30969e	0.17244956
216	0xbdd3a023	-0.10333278
217	0x3e817a02	0.25288397
218	0xbe235c1c	-0.15953106
219	0xbe492889	-0.19644369
220	0x3e840ee4	0.2579261
221	0xbe43fdcd	-0.19139786
222	0x3c7847a8	0.015153803
223	0x3dcecc1e	0.10097526
224	0xbd70b79b	-0.05876885
225	0xbeafa4c4	-0.34305394
226	0x3dc9e144	0.09857419
227	0x3e86ebca	0.26351768
228	0x3dcc9d03	0.09990885
229	0xbea5878a	-0.3232997
230	0x3d499271	0.049211923
231	0x3e7cbd78	0.24681652
232	0xbe8aca3d	-0.2710742
233	0xbdc80f51	-0.097685464
234	0x3d1c834d	0.038211156
235	0x3ecc4994	0.39899886
236	0x3c30ebac	0.010798376
237	0xbf30d910	-0.6908121
238	0xbdf490ea	-0.11941703
239	0x3e0c20ca	0.13684383
240	0xbeaea4af	-0.3411002
241	0x3e905109	0.28186825
242	0x3ce59c55	0.028028646
243	0x3e03de0a	0.1287767
244	0xbd162d57	-0.036664333
245	0x3e7c4dab	0.24639003
246	0x3f021079	0.50806385
247	0xbeb334dd	-0.3500127
248	0xbe9d5274	-0.3072697
249	0x3e7cc0c2	0.24682906
250	0xbe50c0d3	-0.20386057
251	0x3c198496	0.00936999
252	0xbe8c7424	-0.27432358
253	0x3e2fed74	0.17180425
254	0x3e366ffb	0.17816155
255	0xbeb09996	-0.34492177

weight f4 [16, 16, 1, 1]
0	0x3ce4fa8f	0.027951507
1	0x3d7eea72	0.062235303
2	0xbe30b0e5	-0.1725498
3	0xbf18e649	-0.5972639
4	0x3e360066	0.1777359
5	0xbd1cd52b	-0.03828923
6	0x3e68e6aa	0.22744241
7	0x3e00fc23	0.12596183
8	0xbe947651	-0.28996518
9	0xbebffc94	-0.3749739
10	0xbde86745	-0.11347822
11	0x3d4dea40	0.050272226
12	0xbe324c6a	-0.17411962
13	0x3d8a853f	0.06763696
14	0x3e02fba9	0.12791313
15	0xbe8899c2	-0.26679808
16	0x3da90d3e	0.08254479
17	0xbc8ba0c1	-0.017044427
18	0x3c01906d	0.007907969
19	0xbf17f507	-0.5935826
20	0xbe8f1e73	-0.27952918
21	0xbde6d2b3	-0.112706564
22	0x3e23335f	0.15937565
23	0xbdd8cfd0	-0.10586512
24	0xbef7faf0	-0.48433638
25	0xbebc46ee	-0.36772865
26	0x3ddc5a3c	0.10759398
27	0xbdb2394e	-0.08702336
28	0x3db69b01	0.089162834
29	0x3dd925dd	0.10602925
30	0x3e1c1d7a	0.1524562
31	0xbe37bd6e	-0.17943355
32	0x3e2340af	0.15942644
33	0xbdcefb99	-0.10106582
34	0x3e00fc16	0.12596163
35	0xbf129a81	-0.57267004
36	0x3f13d747	0.5775036
37	0xbcdb24b2	-0.026750896
38	0x3e4f1d4a	0.20226017
39	0x3e036f4a	0.12835422
40	0xbeccf1c0	-0.4002819
41	0xbd4a4628	-0.049383312
42	0x3e343a23	0.17600302
43	0xbdc185d4	-0.09449354
44	0x3abc7aa9	0.0014379817
45	0x3d87383d	0.066025235
46	0x3dfb5c7f	0.122735016
47	0xbd367c17	-0.044551935
48	0x3cd6f40d	0.02623942
49	0xbdcdfe46	-0.100582644
50	0x3e0d3733	0.13790588
51	0xbf09416d	-0.53615457
52	0x3e82d95c	0.25556457
53	0xbd30abd0	-0.043132603
54	0x3e8697a7	0.26287577
55	0x3d865550	0.06559241
56	0x3d11d3a2	0.03560222
57	0xbf06b024	-0.5261252
58	0xbdbef210	-0.093235135
59	0xbdec928f	-0.11551391
60	0xbd10329f	-0.035204526
61	0x3cebd40a	0.028787632
62	0x3df35ded	0.11883149
63	0x3e1bcb9d	0.15214391
64	0x3ea85e6c	0.32884538
65	0xbc8b94ff	-0.01703882
66	0xbca4edb0	-0.02013287
67	0x3d3aac64	0.04557456
68	0x3e375843	0.17904763
69	0xbd0b74d6	-0.03404697
70	0xbda1f370	-0.0790776
71	0x3ca3f25d	0.020013029
72	0x3eb797de	0.35858053
73	0xbf28262f	-0.65683264
74	0xbda5de0c	-0.08098993
75	0xbdb5cf12	-0.08877386
76	0x3e054cba	0.1301755
77	0xbd87f1f8	-0.06637949
78	0xbe272ba4	-0.16325241
79	0x3f11de55	0.56979877
80	0xbe38d8bd	-0.18051429
81	0x3ccc49c6	0.024937522
82	0x3e0ce7d2	0.13760307
83	0xbefb718b	-0.49110064
84	0xbe9bc26e	-0.30421776
85	0xbe41aac9	-0.18912806
86	0xbd1bef04	-0.03806974
87	0x3d6a54b1	0.057209674
88	0xbede6bba	-0.43441564
89	0x3cd135fa	0.025538433
90	0xbe0c7469	-0.13716282
91	0xbcc6b807	-0.024257673
92	0xbe225405	-0.15852363
93	0x3d06dee5	0.032927413
94	0x3e747c33	0.23875503
95	0xbeda1946	-0.42597407
96	0x3d057f70	0.032592237
97	0x3d4b4d72	0.049634404
98	0xbe8f2b96	-0.2796294
99	0xbf0d5d23	-0.5522024
100	0xbca79592	-0.020457063
101	0x3d6f5557	0.058430996
102	0x3ecc9590	0.39957857
103	0xbdde97aa	-0.108687714
104	0xbddb8a39	-0.10719723
105	0xbeb43523	-0.3519679
106	0xbd9072de	-0.07053159
107	0xbe04064c	-0.12893027
108	0xbc0c0504	-0.008546118
109	0x3d0f4ec1	0.034987215
110	0x3ebd3b21	0.36959174
111	0xbe8eb346	-0.2787115
112	0xbe730f0f	-0.23736213
113	0xbc1a6dd9	-0.009425604
114	0xbdc2698d	-0.094927885
115	0xbf19c68e	-0.60068595
116	0x3ea0b2a2	0.31386286
117	0x3e54c021	0.20776416
118	0xbda20376	-0.07910816
119	0xbcf9eb8d	-0.030507827
120	0xbe1b7ff5	-0.1518553
121	0x3d2aefc6	0.041732572
122	0x3b3a674b	0.0028442915
123	0xbe02d9f8	-0.12778461
124	0xbde4c262	-0.11169888
125	0xbd2177f2	-0.03942103
126	0x3ef5e3d6	0.48025388
127	0x3e0166d3	0.1263688
128	0x3c1e4312	0.0096595455
129	0x3d53a86d	0.051674295
130	0xbc6fd33e	-0.014637766
131	0xbf5f79e5	-0.8729537
132	0x3ead5240	0.33851814
133	0x3e129927	0.14316235
134	0xbc309fe3	-0.010780307
135	0xbdec8270	-0.115483165
136	0xbe435942	-0.19077018
137	0x3c30e56f	0.010796889
138	0xbe2d630d	-0.16932316
139	0x3dc65a6b	0.096852146
140	0xbd3cd6e5	-0.046103377
141	0xbe02e986	-0.12784395
142	0x3e3395ec	0.1753766
143	0xbe97a06b	-0.29614577
144	0xbd72292a	-0.05912129
145	0xbd012cd4	-0.031536892
146	0x3e91ad0b	0.28452334
147	0xbf173e8e	-0.59079826
148	0x3ebfcd34	0.37461245
149	0x3e33e7f4	0.17568952
150	0xbe286929	-0.16446365
151	0x3e5f75d7	0.21822296
152	0xbf19e719	-0.6011825
153	0x3e2236d0	0.15841222
154	0x3d078ddc	0.033094272
155	0x3ded18a1	0.11576963
156	0x3cbdd0f2	0.023170922
157	0x3d4b035c	0.04956375
158	0x3e010499	0.1259941
159	0x3d652726	0.055945538
160	0xbe1667cf	-0.14688037
161	0xbd409ef1	-0.04702658
162	0x3e68700c	0.22698992
163	0xbf1b9df9	-0.6078792
164	0x3e1fe6e9	0.15615429
165	0x3e5a833a	0.21339121
166	0x3da14cf8	0.07876009
167	0x3e09ac7e	0.13444707
168	0xbec4378b	-0.38323626
169	0x3cfd49f3	0.03091905
170	0xbc90e8c9	-0.017689126
171	0xbc21af1a	-0.009868408
172	0xbe0aef6d	-0.13567896
173	0xbd154f34	-0.036452487
174	0x3ec95271	0.3932071
175	0xbe4c9c72	-0.19981554
176	0x3d6eca26	0.058298253
177	0xbc0fc4af	-0.00877492
178	0xbe06ec38	-0.13176048
179	0x3e08d027	0.13360654
180	0x3f34b358	0.70586157
181	0x3da29fee	0.079406604
182	0xbe14647c	-0.14491457
183	0x3e8c4ca1	0.27402213
184	0x3eacbe32	0.33738858
185	0xbd95b8ea	-0.0731066
186	0xbdbcae63	-0.09212949
187	0xbdbb0753	-0.09132256
188	0x3df1929b	0.11795541
189	0xbca699cb	-0.020337006
190	0x3e99bf2c	0.30028665
191	0x3e96f715	0.29485384
192	0xbe80ff03	-0.25194559
193	0x3c8fc158	0.017548248
194	0x3e24fa6b	0.16111152
195	0xbf120644	-0.5704081
196	0x3f08fc74	0.5351021
197	0xbdb9e4fc	-0.090768784
198	0xbdbe4371	-0.09290207
199	0x3c287077	0.01028072
200	0xbe827dcd	-0.25486603
201	0xbd4c1657	-0.049825992
202	0xbd94c93d	-0.07264946
203	0x3e4289c1	0.18997861
204	0xbe265d95	-0.16246636
205	0x3da7fa37	0.082020216
206	0x3e218e60	0.15776968
207	0xbe28a1f8	-0.16468036
208	0x3dd9be7e	0.106320366
209	0xbd9e2c57	-0.07723301
210	0xbe115df1	-0.14195992
211	0xbf515c57	-0.81781524
212	0x3ecd8fe5	0.40148845
213	0xbcd76585	-0.026293525
214	0x3df67603	0.12034228
215	0xbda03159	-0.07821912
216	0xbca27a57	-0.019833727
217	0xbd905ba9	-0.07048733
218	0x3e1ed5d0	0.1551125
219	0x3d956285	0.07294182
220	0xbe051bb4	-0.12998849
221	0xbcf8c491	-0.030367168
222	0x3e306ab4	0.17228204
223	0xbd9130d8	-0.07089394
224	0xbea0972f	-0.31365344
225	0x3dcda54f	0.10041296
226	0xbb2750df	-0.002553038
227	0xbf008be3	-0.5021345
228	0xbea1f40b	-0.31631503
229	0xbda19e3a	-0.078915074
230	0xbcd72b3a	-0.02626573
231	0xbe31de9e	-0.17370078
232	0xbebabab3	-0.36470565
233	0x3e28e597	0.16493832
234	0xbb9ad819	-0.004725468
235	0x3c332236	0.0109334495
236	0xbcd59f03	-0.0260768
237	0xbc87622f	-0.01652631
238	0x3e9096e1	0.2824011
239	0xbef0e833	-0.47052154
240	0x3d517d66	0.05114498
241	0x3c1fe339	0.009758764
242	0xbc07d164	-0.008289669
243	0xbf22e88d	-0.63636094
244	0xbd83b2b2	-0.06430568
245	0xbd44100d	-0.04786687
246	0x3d7ffd57	0.062497463
247	0xbe03e189	-0.12879004
248	0xbead8cde	-0.33896536
249	0xbe338c20	-0.17533922
250	0xbe0b8d88	-0.13628209
251	0xbe85be62	-0.26121813
252	0x3de069b1	0.10957659
253	0x3d7bac1b	0.06144343
254	0x3e9d22d1	0.30690625
255	0xbe894e17	-0.2681739

weight f4 [16]
0	0x3c301dc5	0.010749285
1	0xbcd21337	-0.025643928
2	0x3c9a28f4	0.018818356
3	0xbc9ad3f0	-0.018899888
4	0xbd2a8743	-0.041632902
5	0x3bbb7f9e	0.0057220003
6	0xbc41ce85	-0.011829023
7	0x3d85ccc3	0.06533196
8	0xbd158e49	-0.036512647
9	0xbc65b7a0	-0.01402083
10	0x3d32847a	0.04358337
11	0xbc7c371a	-0.015393997
12	0x3b25b500	0.0025284886
13	0xba0c70e0	-0.0005357396
14	0xbbdefe56	-0.0068052216
15	0x3ce0c1af	0.027436106

bias f4 [16]
0	0x3adec929	0.0016997206
1	0x3ba398c1	0.004992575
2	0x3c25a50f	0.010110154
3	0xba2c493e	-0.0006572193
4	0x3c696bdc	0.014246907
5	0xbc50d032	-0.01274495
6	0xbba90fee	-0.0051593697
7	0x3b9fecc5	0.00488052
8	0x3a0abc45	0.00052923366
9	0xbc2a2485	-0.0103846835
10	0x3c17b4fc	0.009259459
11	0x3bfb17c6	0.007662746
12	0x3c8316f4	0.016002156
13	0xbbfe8180	-0.0077669024
14	0x3c7ed895	0.015554567
15	0xbc60b17e	-0.013714192

running_mean f4 [16]
0	0x3d075921	0.033043984
1	0x3cd3af7b	0.025840512
2	0xbc01b7dd	-0.007917372
3	0x3d85ea6d	0.06538854
4	0x3d197830	0.037468135
5	0x3c33936b	0.01096044
6	0x3d617a9e	0.055048577
7	0x3c8278dd	0.015926773
8	0x3d87f91a	0.06639309
9	0xbd034274	-0.032045797
10	0x3bc23651	0.005926885
11	0xbcd6250c	-0.026140712
12	0x3c872e48	0.01650156
13	0x3d9f6f6c	0.07784924
14	0x3cac30f9	0.021019446
15	0x3ce33aff	0.027738092

running_var f4 [16]
0	0x410a5b2a	8.647257
1	0x4119c334	9.610157
2	0x40f1ff85	7.5624413
3	0x40b6a89f	5.7080836
4	0x3ffb102b	1.9614309
5	0x40e8cb3b	7.2748084
6	0x4103b0d5	8.230672
7	0x40e5c557	7.1803393
8	0x414ffd6b	12.99937
9	0x40fc2502	7.8795176
10	0x4117ed72	9.49547
11	0x3fc18a4c	1.512033
12	0x40d98406	6.797366
13	0x412347fb	10.205073
14	0x40e324c3	7.0982375
15	0x411d9043	9.84772

weight f4 [1, 864]
0	0xbb4162ad	-0.0029508278
1	0x3c01fb85	0.007933502
2	0x3c163f61	0.009170384
3	0x3ca826ea	0.020526368
4	0x3d902893	0.07038989
5	0xbb41fb34	-0.0029599192
6	0x3d7e94a4	0.062153473
7	0xbda34e2d	-0.07973895
8	0x3ca67439	0.020319091
9	0xbd99a13d	-0.07501457
10	0xbce61fd8	-0.028091356
11	0x3cb363f8	0.021898255
12	0xbb18cb0c	-0.0023314385
13	0xbdd8743f	-0.10569047
14	0xbd9fbd1b	-0.07799741
15	0x3d5d3e4b	0.054014485
16	0xbba899bc	-0.0051452797
17	0x3d0a6739	0.033789847
18	0x3d516bb1	0.051128093
19	0x3d86b0e5	0.06576709
20	0xbcc5475a	-0.024081875
21	0xbd1e4faa	-0.038650192
22	0xbd1b8bee	-0.037975244
23	0xbc72d613	-0.014821547
24	0xbcfa99df	-0.03059095
25	0x3c52e24d	0.012871337
26	0x3c87c644	0.016574033
27	0xbd1c62e8	-0.03818026
28	0x3ca1351c	0.019678645
29	0xbd983c60	-0.074333906
30	0x3c5c140a	0.013432512
31	0xbd982fcf	-0.07430994
32	0xbcbf86fe	-0.023379799
33	0xbd261689	-0.040548835
34	0xbd0e4c75	-0.034740884
35	0x3d087e49	0.03332356
36	0xbc96ab27	-0.018392159
37	0xbd3572f2	-0.044299074
38	0xbc9132e9	-0.017724471
39	0x3d1fc042	0.03900171
40	0x3cb72234	0.022355177
41	0xbcc930f4	-0.024559475
42	0x3ce97d29	0.028502064
43	0x3d0dd4e7	0.034626868
44	0x3da8cd2b	0.08242258
45	0x3bece1d7	0.0072290706
46	0x3c152707	0.009103543
47	0xbce5f74d	-0.028072024
48	0x3d04030a	0.03222946
49	0xbb586ec8	-0.0033025015
50	0xbc6a2be6	-0.014292693
51	0x3d94a291	0.072575696
52	0xbcd64269	-0.026154714
53	0x3d2ebdb1	0.042661373
54	0xbd948097	-0.07251089
55	0x3da967b3	0.08271732
56	0x3cf0d3c8	0.02939786
57	0xbd4013c2	-0.046893843
58	0xbcbae4ff	-0.022814272
59	0x3cbcbf7e	0.02304053
60	0x3c93c2a4	0.018037148
61	0xbb5f148b	-0.0034039344
62	0xba3ad15e	-0.0007126535
63	0x3c78842e	0.015168233
64	0x3b932e0d	0.0044915737
65	0xbd24185a	-0.040062286
66	0xbc8b3a61	-0.01699561
67	0x3d846a11	0.06465543
68	0xbd267db9	-0.040647242
69	0xba928624	-0.0011178893
70	0xbaa82347	-0.0012827896
71	0xbd57ed22	-0.05271638
72	0xbd09f48e	-0.03368049
73	0x3ccd2315	0.025041142
74	0x3cc9a01c	0.024612479
75	0xbd2a93fb	-0.04164503
76	0xbc487d23	-0.012236866
77	0xbcb4f4af	-0.02208933
78	0x3d3b1fc9	0.04568461
79	0x3d8b4643	0.06800511
80	0xbcf29ee3	-0.029616779
81	0x3c7f2125	0.015571867
82	0xbce9ea0b	-0.028553983
83	0xbbfd17db	-0.007723791
84	0x3d0f982e	0.03505724
85	0xbd802975	-0.06257907
86	0x3b599f48	0.0033206511
87	0x3b8ba1e8	0.004261244
88	0x3d1eb315	0.038745005
89	0xbcb9485c	-0.022617511
90	0x3c90a9d8	0.017659113
91	0xbcf32605	-0.029681215
92	0xbbdfab80	-0.0068258643
93	0x3bb8d4b1	0.005640589
94	0x3c806c0b	0.015676519
95	0x3c2dc62b	0.010606329
96	0xbd2786b3	-0.040899944
97	0x3c23d80f	0.010000243
98	0xbc9b1f60	-0.01893586
99	0xbcaf1af0	-0.02137515
100	0xbd12fa6c	-0.035883352
101	0xbbd41a86	-0.0064728884
102	0x3cb4fb1d	0.022092396
103	0xbcf3f88a	-0.029781599
104	0xbcea1b08	-0.028577343
105	0x3c735689	0.014852175
106	0x3cbf89cd	0.023381138
107	0x3cf535c4	0.029932864
108	0xbd33dc2a	-0.043911137
109	0xbbbfbd4d	-0.005851424
110	0x3d4b2111	0.04959208
111	0xbc563c0c	-0.01307584
112	0x3cafdd51	0.021467837
113	0xbd18bf7f	-0.037292
114	0xbd41d7a1	-0.04732478
115	0x3bf34108	0.007423524
116	0xbd3e6b34	-0.046488956
117	0xbc2ef36b	-0.010678153
118	0xbc7b1358	-0.015324436
119	0x3bcec171	0.006309681
120	0x3b02650b	0.0019896652
121	0xbd827ea6	-0.063718125
122	0xbc0fa39c	-0.008767035
123	0x3c22cd3f	0.00993663
124	0x3c6c68b8	0.014429264
125	0xbd5f2a91	-0.054483954
126	0xb95c1697	-0.0002098925
127	0xbd73215d	-0.05935799
128	0xbd41a4b5	-0.047276217
129	0xbc319ae8	-0.010840155
130	0xbc9eb7ef	-0.019374816
131	0x3ad1e486	0.001601354
132	0x3cc638c6	0.024196994
133	0xbd2d2e2c	-0.04228036
134	0x3c20d13e	0.009815512
135	0x3c8d4cbd	0.017248506
136	0xbc35dc6f	-0.011099919
137	0x3cfa63d7	0.030565185
138	0x3c805529	0.015665608
139	0xbda8291c	-0.08210966
140	0x3d0cf086	0.03440907
141	0xbd85bd44	-0.0653024
142	0xbd89a8e1	-0.06721664
143	0xbcb3d026	-0.021949839
144	0xba80cb5f	-0.0009826234
145	0xbd2563ad	-0.04037826
146	0xbc80f0bf	-0.015739797
147	0xbce8d71d	-0.028422887
148	0x3d87bbbe	0.06627606
149	0xbbc482d3	-0.005997041
150	0xbb9b41d2	-0.004738071
151	0x3cbbe2ce	0.022935297
152	0xbc23abc5	-0.0099896835
153	0x3d2fab0d	0.042887736
154	0xbca3940a	-0.019968051
155	0xbbbf62fc	-0.0058406573
156	0xbd0a9c5a	-0.033840515
157	0x3d5d2014	0.05398567
158	0x3bfc6a30	0.007703088
159	0xbcf9c8fa	-0.03049134
160	0xbd1b5164	-0.037919417
161	0xbc8dc27e	-0.017304655
162	0x3cb03e67	0.02151413
163	0x3b152a1a	0.002276069
164	0x3cb40389	0.021974342
165	0xbcfd9f1a	-0.030959655
166	0x3dd8dfb9	0.10589547
167	0xbd526810	-0.051368773
168	0xbbb21d9a	-0.0054356577
169	0x3cd61924	0.026135035
170	0x3ce64cd8	0.028112814
171	0xbd119692	-0.035543986
172	0x3ca127c2	0.019672278
173	0xbd2a761a	-0.041616537
174	0x3cace86c	0.021106921
175	0x3b8102d3	0.0039371043
176	0xbcc41a2e	-0.023938265
177	0xbd08787f	-0.03331804
178	0xbc5000b7	-0.012695483
179	0x3d633d60	0.055478454
180	0xbd25193f	-0.04030728
181	0xbd22b159	-0.039719913
182	0x3cfbc9da	0.030735899
183	0xbce33798	-0.02773647
184	0xbcd00e77	-0.025397522
185	0x3d52964f	0.051412877
186	0xbae0f309	-0.0017162274
187	0xbd05f595	-0.03270491
188	0xbd1320df	-0.03592002
189	0xbc6fc692	-0.014634745
190	0xbd0bb6c0	-0.03410983
191	0x3cb1e00c	0.02171328
192	0xbd6faa47	-0.058512
193	0xbcfc6c2d	-0.030813301
194	0x3cfc8b88	0.030828252
195	0x3d7f4613	0.062322687
196	0x3d9242e1	0.071416624
197	0xbd240b6a	-0.040049948
198	0x3cdd20f5	0.026993254
199	0x3ca6920a	0.020333309
200	0x3d4c50de	0.04988181
201	0xbcb5d0fb	-0.022194376
202	0x3c5c8abf	0.013460814
203	0x3bd7d292	0.0065863812
204	0xbc8fd054	-0.017555393
205	0x3c64c1f2	0.013962256
206	0xb929f77a	-0.00016209288
207	0x3c2a123a	0.010380322
208	0x3d2ab601	0.04167748
209	0x3d5a28c5	0.053261537
210	0xbd321364	-0.043475524
211	0xbc7eec54	-0.015559275
212	0x3aeab073	0.0017905369
213	0xbd0e427d	-0.034731377
214	0x3c8b5430	0.017007917
215	0xbd03b4d9	-0.03215489
216	0x3c8885de	0.016665395
217	0xbda7e61e	-0.08198188
218	0xbcaf11bc	-0.021370761
219	0xbcd89535	-0.026438335
220	0x3ba5b28e	0.005056686
221	0xbc6fbd4f	-0.014632537
222	0xbcc038e3	-0.023464626
223	0xbcdc77e4	-0.026912637
224	0xbc36800d	-0.011138928
225	0x3da1e15d	0.07904313
226	0x3915d7a9	0.00014290087
227	0x3a213ebb	0.000615101
228	0xbbe72b9e	-0.00705476
229	0xbc005c49	-0.0078345025
230	0xbda9c7c7	-0.08290058
231	0xbd6490e9	-0.05580226
232	0xbd0d4857	-0.034492817
233	0xbdabe5aa	-0.08393414
234	0xbd9d434a	-0.0767885
235	0xbd332526	-0.0437366
236	0xbafc58e8	-0.001925257
237	0x3ccaf041	0.024772765
238	0x3c5d4a7a	0.013506526
239	0x3d2a156f	0.041524347
240	0x3c90be15	0.017668763
241	0x3da623a0	0.08112264
242	0xbb65cafe	-0.003506362
243	0xbdf866cf	-0.12128984
244	0x3c691a6b	0.01422749
245	0xbc98c8dd	-0.018650467
246	0xbd22ac90	-0.03971535
247	0xbc4df6c4	-0.012571041
248	0xba9237f9	-0.0011155597
249	0xbd1687ad	-0.036750484
250	0x3cb90188	0.022583738
251	0xbd9ac431	-0.07556952
252	0xbb47de94	-0.0030497657
253	0xbd4a77ed	-0.049430776
254	0x3cd7bead	0.026336038
255	0xbd469191	-0.048478667
