code_minst/k_cross_CNN.pt (torch, 664688 bytes, 8 tensors)

weight f4 [16, 1, 5, 5]
000000 c5 ba b4 3d a1 f2 bf 3d d5 d0 14 be f8 4a 90 3d
       0.08824686 0.0937245 -0.14532788 0.07045549
000010 86 81 58 be 46 a2 b7 bd d1 46 97 be df f9 15 bd
       -0.2114316 -0.08966498 -0.29546216 -0.03661525
000020 5c 13 10 3e b2 f0 b9 bd a5 38 4b 3e 0f ed ba 3d
       0.14069885 -0.09079112 0.19845827 0.091272466
000030 47 82 7a 3d eb 7f bb 3d 18 67 84 3e 3b 63 a2 bd
       0.0611594 0.09155258 0.25859904 -0.07929083
000040 c5 66 a9 3d fa 28 4b bd 36 7f ea bd fc 6a 59 bb
       0.08271555 -0.049599625 -0.11450045 -0.003317534
000050 0f dc 91 be 4e 92 5c be 9e 84 dd bd 65 98 e8 3d
       -0.28488204 -0.21540186 -0.1081631 0.11357192
000060 d2 cc d3 be 72 84 e1 bc 9b 47 31 be 40 7b 00 be
       -0.41367203 -0.027528975 -0.17312472 -0.12547016
000070 dc 61 79 3d 2f 69 76 be 1d 3f e2 3d 64 c7 45 be
       0.06088434 -0.24063562 0.11047194 -0.19314343
000080 13 dc 6b 3e 2f 05 37 3c a7 90 aa be 0d 3a 1c bd
       0.2303317 0.011170669 -0.33313486 -0.0381413
000090 95 78 3e 3c 50 c8 04 3e c3 7a 82 bd 19 1e c9 bd
       0.011625429 0.12967038 -0.06371071 -0.09820194
0000a0 ef 00 5f bc 1f 51 14 be 4a 3d 52 bc d8 56 39 3e
       -0.013611062 -0.1448407 -0.012831995 0.18099535
0000b0 68 49 54 3e 4c 97 4e bd 1f 7a 02 3e ae 7b 91 bd
       0.20731127 -0.050437257 0.12741898 -0.07103668
0000c0 e5 dd bc 3d e2 7d b5 bd b5 fe 96 be 6f e2 d1 3c
       0.092220105 -0.08861901 -0.294912 0.025620667
0000d0 44 a7 46 bc 83 07 78 3e 32 77 12 3e 63 30 f2 bd
       -0.01212484 0.24221615 0.14303282 -0.11825635
0000e0 82 68 15 3e 8d de 19 3e 30 ef ed 3d bd 07 60 be
       0.14590648 0.15026303 0.11617887 -0.21877952
0000f0 31 8b 68 bd 22 11 93 3c ca c6 88 3e 85 c8 4e bd
       -0.05677337 0.017952505 0.26714164 -0.0504842
000100 3a f9 07 be e8 74 11 bd ea 9e 8c 3e ab 9b a4 bd
       -0.13278666 -0.03551188 0.27464992 -0.08037504
000110 32 c3 54 be 17 15 ab be 98 20 5f 3e 55 68 04 3e
       -0.20777586 -0.33414528 0.21789777 0.12930425
000120 49 ed 03 3e 8f ba 86 be 1d 29 8d be ae bd b7 be
       0.12883486 -0.26314208 -0.2757043 -0.35886902
000130 b7 4a 85 be 6e 38 14 3d 3e df e2 3d 97 b2 60 3e
       -0.26033565 0.036186628 0.11077736 0.21943127
000140 eb 7d bc be 81 bd 5a be 55 27 3f 3e 94 30 f2 3d
       -0.36814818 -0.21361353 0.18667348 0.11825672
000150 f1 b1 8a 3e 5e 19 c3 be 2b 5c c8 3d f5 47 af 3c
       0.27088884 -0.3810529 0.09783205 0.021396616
000160 70 9a ea 3d bf fa 01 3e f6 8e 12 be 30 99 af 3a
       0.11455238 0.12693308 -0.14312348 0.0013397094
000170 8a 30 85 3e 32 45 90 3e f9 54 52 be 1d 6b 12 bd
       0.26013595 0.28177792 -0.20540227 -0.035746682
000180 ca 8c 71 3e 46 ee 83 bb 1c b0 7f bd d0 86 77 be
       0.23588863 -0.004026207 -0.06242381 -0.2417252
000190 9a d8 4c bd 0b 29 e7 3a 64 38 b7 3c 7b 1d 4a be
       -0.050011255 0.0017636133 0.022365756 -0.19737808
0001a0 39 d6 fc bd e2 28 d9 3d 7f 39 02 be 0b df 27 be
       -0.12345547 0.10603501 -0.12717246 -0.16393678
0001b0 e6 58 c4 be 6a ef 94 be 38 6c d4 3e 15 08 45 3e
       -0.38349074 -0.29088908 0.41488814 0.19241364
0001c0 0d 1e e7 bd a3 24 1b bf 4f 8a 19 be 78 cc 20 3e
       -0.112850286 -0.6060278 -0.14994167 0.15702999
0001d0 57 a0 e9 3d f9 aa 8c be 62 eb a7 be 7b 56 0b be
       0.114075355 -0.27474192 -0.3279677 -0.13607208
0001e0 61 ec 86 3e 85 b0 69 3d 6b 06 b2 bd 50 99 c1 be
       0.26352218 0.057053108 -0.086926304 -0.3781228
0001f0 25 cf 9d be 0a 24 43 3d e4 17 5d 3d fa 24 3c be
       -0.308221 0.04764179 0.053977862 -0.1837348
000200 1e 11 44 3d d1 b1 58 bd 8e 1f 56 3e 79 8f ee bc
       0.047867887 -0.052903954 0.20910475 -0.029121147
000210 27 f3 0b bf 11 52 b1 bc 3f 62 b9 bd 55 69 96 bc
       -0.54667896 -0.021645578 -0.09051942 -0.018360773
000220 71 52 da be bd 12 ae be 75 57 07 3e 7a e8 d5 3d
       -0.42641023 -0.3399867 0.13216956 0.10444732
000230 3c 92 13 3d a3 46 5f be bc 93 77 3e d2 c9 85 3d
       0.03602813 -0.2180429 0.2417745 0.06532635
000240 a0 4b f9 3d 8a 01 85 3e 6e 55 a6 3e b8 61 83 3e
       0.121726274 0.25977737 0.32487053 0.2566049
000250 6a aa 14 3e f9 46 5a be 8e b6 ca 3d 62 f9 7a bc
       0.14518133 -0.21316136 0.09898101 -0.015318247
000260 ec 9b fd 3c e8 39 25 be 5e f3 18 3e b8 48 09 be
       0.030958138 -0.1613537 0.14936587 -0.13406646
000270 d1 4a 57 3e f0 52 ea 3d 07 ac 61 bd 34 65 ac be
       0.21024634 0.114416 -0.0550957 -0.33670962
000280 c6 52 25 3e bd cf f4 3d 34 cf 33 3e d6 24 81 be
       0.16144857 0.119536854 0.1755951 -0.25223416
000290 81 60 99 bd 97 c3 82 be 14 ed e1 bd 16 0d c9 3e
       -0.0748911 -0.25539848 -0.11031547 0.39267796
0002a0 8f f1 2c 3d 1d c4 39 be c1 29 d4 be 50 6b e4 bc
       0.042222556 -0.18141218 -0.41438106 -0.027883202
0002b0 9d 28 af 3e 0b 15 c8 3d 1b 5a d6 bd 2d 41 fc bd
       0.34210673 0.09769639 -0.10466405 -0.12317119
0002c0 38 72 21 be fc 63 01 3e c0 72 58 3e b6 c2 9f be
       -0.15766227 0.12635797 0.21137524 -0.3120324
0002d0 a9 9e b8 bb a5 f4 68 3e 19 46 ee 3d a4 d6 19 be
       -0.005634148 0.22749574 0.11634464 -0.15023285
0002e0 a3 19 2e 3d ca fd a6 3d 95 fd ce 3d 98 30 b3 bc
       0.042504918 0.08153875 0.10106961 -0.021873757
0002f0 cd e9 2d be 68 f5 9a bc 4c 8c da bd 41 fa 21 bd
       -0.16983719 -0.018915847 -0.10671291 -0.0395453
000300 d0 e9 4b 3e 02 cf 3c 3e d6 68 ba 3b ab 71 3d 3d
       0.19913411 0.18438342 0.005688767 0.04625098
000310 30 3f 2d 3c e0 a3 95 bc a7 70 b9 3d 7a c9 a2 3d
       0.010574147 -0.018266618 0.0905469 0.07948585
000320 40 9c aa 39 59 f3 35 3c f0 bf a8 3e 70 c9 9b 3e
       0.00032541342 0.011105382 0.32958937 0.30427122
000330 23 19 33 3e a1 c4 eb bd 39 af 0c bf c2 0d 15 bf
       0.17490058 -0.11512113 -0.5495487 -0.5822412
000340 ef 89 f3 bd ef 12 41 3e b8 22 94 3e 38 20 04 3d
       -0.11891543 0.18854879 0.28932738 0.03225729
000350 fb 4c d1 be 9e 06 c7 be ad 78 22 be 33 6a ad 3e
       -0.40879044 -0.38872236 -0.15866347 0.33870086
000360 44 6e a1 3e 39 98 9e 3d a0 b8 08 3d 93 c9 c2 bd
       0.31529438 0.07743878 0.033379197 -0.095111035
000370 d1 e7 80 be 7c 19 82 3e ea 25 b8 3d 25 04 1d 3e
       -0.25176862 0.25410068 0.089916065 0.15333612
000380 35 57 01 3b 6d b3 32 3e 68 80 2c 3e aa da 88 3d
       0.0019735817 0.17451258 0.16845858 0.06682332
000390 11 18 83 3d 99 54 1f 3e 93 cb a1 3d df 57 95 3e
       0.06401075 0.15559615 0.07900157 0.29168603
0003a0 16 3b 76 3e c5 72 af 3e 0e cc 63 3e 9b 54 2f 3e
       0.24045977 0.3426725 0.2224581 0.17122118
0003b0 17 63 9c 3d 74 b2 a2 3c e7 b0 c7 bd 49 c1 b5 be
       0.076360874 0.019860484 -0.09750538 -0.35499027
0003c0 c1 32 c7 bc 2d 69 de bd eb 69 7b be 3e 66 c3 be
       -0.024316194 -0.108599044 -0.24552123 -0.38163942
0003d0 20 f8 a7 be df 56 e4 be db de cc be fb 35 af be
       -0.32806492 -0.44597527 -0.40013775 -0.3422087
0003e0 87 bb 98 bd 4e 8f 23 3e 0c d6 36 3e 77 1f 66 be
       -0.07457643 0.15972635 0.1785509 -0.2247294
0003f0 cc 67 01 be 23 6a 26 be b7 6c 4b be ff 43 ad be
       -0.12637252 -0.16251425 -0.1986569 -0.3384094

bias f4 [16]
000000 e1 9e 59 bd 31 66 b9 bd 0b ee 43 be 12 14 99 bd
       -0.053130034 -0.090526946 -0.19133775 -0.07474531
000010 c2 ea 3e bd 82 1f 8f be 09 8a 71 be 31 d8 9c be
       -0.0466106 -0.27953726 -0.23587812 -0.3063369
000020 ca 24 11 be 7b 42 13 bd d0 00 9d bd 1e 79 98 bc
       -0.1417419 -0.035952073 -0.076661706 -0.01861244
000030 6f 01 c9 bd 77 95 2e bd 42 50 f5 bd b6 16 9e be
       -0.098147266 -0.04262301 -0.119781986 -0.30876702

weight f4 [32, 16, 5, 5]
000000 06 62 de bd 66 3c 08 be a0 3b 04 bd 00 75 08 bd
       -0.1085854 -0.1330429 -0.032283425 -0.033314705
000010 90 cc f4 bd b2 9f a8 bd 5f 57 20 be 7e 35 be b8
       -0.1195308 -0.082335845 -0.1565833 -9.06987e-05
000020 8d 58 04 3e c7 7a ae b9 7f a9 9c 3d 29 1e e8 bd
       0.12924404 -0.00033279342 0.07649516 -0.113338776
000030 ea e9 0b bd 18 19 0d 3d 44 f1 62 bd 18 25 92 bd
       -0.034158625 0.03444776 -0.05540587 -0.07135981
000040 04 83 4d be 27 42 12 bc c4 38 e8 bd b9 50 bf bd
       -0.2006951 -0.008926905 -0.11338952 -0.093415685
000050 86 95 5f 3a 39 72 77 bd 3f 01 80 3c d3 90 49 3d
       0.00085290556 -0.060411666 0.015625594 0.04921038
000060 a5 38 08 3e 48 2d dc 3d c8 cc b1 bc e7 17 ca bc
       0.13302858 0.10750824 -0.021704093 -0.0246696
000070 25 fe be bd 0d 54 8b bd 78 af 7b bd 5c 47 fb bd
       -0.09325818 -0.06803141 -0.061446637 -0.1226947
000080 cf a4 a3 3d 8e 48 b3 3b 29 92 f0 3d 0f 46 1a be
       0.07990419 0.0054712957 0.11746628 -0.15065788
000090 4a c1 7a be 55 c3 51 3d 7d 76 dc 3d 25 b7 0d bd
       -0.24487796 0.051211674 0.10764787 -0.03459849
0000a0 b6 77 04 be 7c af 00 bb 48 1f 65 3c e6 b0 bc 3d
       -0.12936291 -0.0019635847 0.013984509 0.09213428
0000b0 70 c6 0b 3d c7 96 dd 3c a8 8c 97 3d 43 c3 8e 3d
       0.03412479 0.027049435 0.07399875 0.06970837
0000c0 2f b3 f7 3d 96 be 57 3c 8c 34 32 be 34 c4 ca bd
       0.120947234 0.013167998 -0.17402858 -0.09900704
0000d0 cf f5 c4 3c e0 9f c6 3d 0b 13 6e 3e 55 a6 ff bb
       0.024042992 0.096984625 0.23249452 -0.0078018107
0000e0 74 a9 80 3d ff 76 4a 3c 76 54 a7 3d c3 ff b1 3d
       0.062823206 0.012357472 0.081704065 0.08691361
0000f0 ac 70 f4 3d da 80 44 be 76 fc 1b 3c c8 66 00 3e
       0.11935553 -0.19189778 0.009520641 0.12539208
000100 5f c3 10 3e bc a5 05 be 6d f1 0c be 88 61 1d 3d
       0.14137028 -0.13051504 -0.13763972 0.03842309
000110 8b d5 a1 3c 6a a4 47 3d 20 50 b3 be a1 97 5f be
       0.019755146 0.04874078 -0.35022068 -0.21835186
000120 2d 02 8e 3d 7f d7 5c 3d d0 48 70 3c d0 f9 31 be
       0.06934009 0.05391645 0.014665797 -0.17380452
000130 e3 4d da 3d 13 5b ba bd 61 03 ab bd 01 1c cf 3b
       0.10659387 -0.09099402 -0.08350254 0.006320477
000140 be d5 fc 3c e1 86 64 3e ec cb ae 3d 99 6f 23 3d
       0.030863639 0.22317077 0.08534989 0.03990135
000150 ec 78 05 be da d0 21 3d 86 62 fe 3d 0a 4b 0c 3e
       -0.1303441 0.039505817 0.124211356 0.137005
000160 24 71 4e 3e 4a ed 98 bd fe 6c f8 bd 82 9d 6e 3b
       0.20160347 -0.07467134 -0.121301636 0.00364098
000170 3a 6b c6 3d 0a 78 9d bd d5 3a 21 be f5 1e 40 be
       0.096884206 -0.07688911 -0.15745099 -0.18761809
000180 2c af c3 3c 27 8c e2 3d 1b 5e 10 bd f7 f1 79 be
       0.02388724 0.11061888 -0.035245996 -0.24408709
000190 66 28 3a 3e c1 fd 8e bd 28 52 6c 3e 94 f8 81 3e
       0.18179473 -0.069819935 0.23078215 0.25384963
0001a0 57 93 ab 3d 15 c5 bb 3e ee a2 72 3e 13 07 55 3e
       0.08377712 0.366738 0.23694965 0.2080348
0001b0 44 a4 3c 3e 54 e3 00 3d de 22 be 3e 31 89 25 3e
       0.18422037 0.031466797 0.37135977 0.16165616
0001c0 a7 b5 75 3e 9e 1d e7 3d a6 c8 84 bd 94 27 1c 3e
       0.23995076 0.11284946 -0.06483583 0.15249473
0001d0 8d b4 e1 bd fe e6 3f 3e e0 c3 da 3c 17 f3 37 be
       -0.110207655 0.1874046 0.026704729 -0.17963825
0001e0 f0 be 78 be 02 55 f2 bd 7d 46 d6 bd 5d ae e4 bd
       -0.24291587 -0.1183262 -0.10462663 -0.1116607
0001f0 bd 0a 8b be a6 b4 c6 bc 1a 32 0f 3c cd 7e 6f 3d
       -0.2715663 -0.024256062 0.0087399725 0.058470536
000200 15 d7 a1 3d 9e 2f af bd 6a b5 b9 3c 75 80 3b 3a
       0.07902352 -0.08554004 0.022669513 0.00071526255
000210 48 e4 1a 3d 76 26 97 3c fd 32 bd 3c 5d a3 26 be
       0.037815362 0.018450957 0.023095602 -0.16273256
000220 5e e0 83 bd 4c ae 77 3d ef 02 e7 bc ec d8 bb bd
       -0.06439279 0.060468957 -0.028199641 -0.09172234
000230 fc 65 1f be cb e4 9f bd b3 48 08 be aa 53 c4 bc
       -0.15566248 -0.07807311 -0.13308983 -0.023965675
000240 93 db 87 3e 73 c1 e5 3d 91 26 84 3e 43 f9 6c 3d
       0.2653471 0.11218538 0.25810674 0.057854902
000250 d3 ec 32 3e 54 43 1d 3e d4 7b 48 3c 54 39 81 3d
       0.17473154 0.15357715 0.012236554 0.063097626
000260 0e 0e 00 3c a0 e1 db bd 5d 04 6e bd 47 d0 be bb
       0.007815851 -0.10736394 -0.05810963 -0.0058231684
000270 72 1b e0 bd ad 85 c7 3d c4 ed 06 3d c4 e5 2b 3a
       -0.10942735 0.097422935 0.032941595 0.000655737
000280 55 61 ab bd c7 be 33 bd 56 ad 76 3d 1d b8 9f 3d
       -0.08368174 -0.04388311 0.0602239 0.07798789
000290 a0 04 ca bd 8a 2a 01 be f9 56 82 bd da 09 07 3e
       -0.098641634 -0.12613884 -0.06364245 0.13187352
0002a0 59 38 71 3d 78 e0 74 bb da ae 4d be 06 cc 43 be
       0.058891628 -0.003736524 -0.20086232 -0.19120798
0002b0 2f 72 c3 3c ff 64 93 bb fe 82 d3 3c 33 42 f1 bd
       0.023858158 -0.0044981237 0.025819298 -0.117802046
0002c0 d7 85 a1 bd f8 e1 12 3d 53 fb 0b be 50 cd f5 bd
       -0.07886856 0.03586003 -0.13670091 -0.12002051
0002d0 6e 1b 30 be 67 13 dd bd ef fb c2 3d 23 57 1c bc
       -0.17197964 -0.10794716 0.09520709 -0.009542259
0002e0 ba fa c9 bc 36 bb ac bd 69 4a b1 bd 74 00 0a 3b
       -0.024655689 -0.08434145 -0.08656771 0.00210574
0002f0 00 42 47 bc e9 62 0e be ba 2d 23 bd f4 da d7 bd
       -0.012161732 -0.13904919 -0.03983853 -0.10539809
000300 f0 c9 cd 3d 0c c6 47 3e 98 f6 f1 3d 39 1c dc bc
       0.10048282 0.19509143 0.11814612 -0.026868926
000310 18 76 13 bd 4f 01 5d 3e 98 ed 9c 3e 9e 6f 0f 3d
       -0.036001295 0.2158253 0.3065002 0.035018556
000320 32 92 70 3e 0f b3 4d bd 33 c7 05 be 07 6c 5b 3d
       0.23493269 -0.05021959 -0.1306427 0.05356982
000330 d0 21 34 bc 79 40 2f bd f0 f4 d8 be 55 80 b1 be
       -0.01099439 -0.042786095 -0.42374372 -0.34668222
000340 9c e6 f5 ba 33 9d 8a 3c 6b 46 50 bc b8 34 c2 be
       -0.0018760744 0.016920662 -0.012712101 -0.37930846
000350 aa 84 18 bf d3 06 12 bd 53 38 84 3c 70 1d 65 be
       -0.5957743 -0.03565104 0.016140139 -0.22374511
000360 65 aa 06 be 8b e8 a7 be 1e 29 25 be b6 a9 68 3e
       -0.13150938 -0.32794604 -0.16128966 0.2272099
000370 6a e8 d3 bd 72 9d 6a 3e 48 c7 88 bb 0d ed 57 3d
       -0.10347064 0.22911623 -0.004174147 0.052716304
000380 b3 4c 80 3e 5d d8 40 be 16 b4 73 3c d2 4c 5c 3e
       0.25058517 -0.18832536 0.014874479 0.2151368
000390 a1 3e c1 be 1c 8c 61 be 86 1e 16 bd d3 94 f9 bd
       -0.37743095 -0.22026104 -0.036650203 -0.12186589
0003a0 61 2d b7 bd f0 7a fd bc 23 13 d0 bc 54 9e ae 3d
       -0.08944202 -0.03094241 -0.02539975 0.085262924
0003b0 31 93 a4 bd 6b 56 4d be 41 eb 70 bd 4b 52 64 3b
       -0.08035887 -0.20052497 -0.058818106 0.003483909
0003c0 3b 27 e5 3d e1 ae c6 be ea 64 9b be ad 9e 31 be
       0.11189123 -0.38805297 -0.3035043 -0.17345686
0003d0 d9 45 89 be fc 78 a3 bd fd 72 df be 58 32 c0 be
       -0.26811102 -0.0798206 -0.43642417 -0.3753841
0003e0 66 da 32 be fe 43 2d bd f9 08 d1 3d b7 53 30 bd
       -0.17466125 -0.04230117 0.102067895 -0.043048587
0003f0 91 d2 74 3d 31 14 5b 3d ec be bf bd f4 b3 ba bd
       0.059771124 0.053486053 -0.09362587 -0.091163546

bias f4 [32]
000000 b8 43 9e bd ac 7e dd bd d4 99 31 bd 6e 34 9c bd
       -0.0772776 -0.10815176 -0.043359593 -0.07627188
000010 1d f6 1f be 9d d6 83 bd 63 91 00 bd 86 d0 95 bd
       -0.15621229 -0.064374186 -0.03138865 -0.07315163
000020 5e f7 a0 bd 90 08 af bd 83 46 7b be 99 c7 3a be
       -0.078596815 -0.08546555 -0.24538617 -0.18240203
000030 38 97 41 bd 8d 34 0e 3b 5d 67 1d bd 0d 5b f1 bd
       -0.047263354 0.0021698803 -0.038428653 -0.11784945
000040 9f c0 f7 bd 9a 4f b9 bb 00 02 c1 bd 6c d8 16 be
       -0.120972864 -0.005655241 -0.094242096 -0.14730996
000050 be 9b a5 bd 4f 78 7b bd 86 a4 8b bd ae 33 af bd
       -0.08086346 -0.061394032 -0.0681849 -0.08554779
000060 e8 84 31 be 34 31 04 be 40 3d 8a bd 91 92 d0 3b
       -0.17335856 -0.12909395 -0.06749964 0.0063651283
000070 5a a1 34 be 39 76 85 bc 3e 1c f6 bb a5 47 dc bb
       -0.17639676 -0.016291725 -0.007510691 -0.006722408

weight f4 [96, 1568]
000000 4b a3 b2 3b 97 51 52 3c 55 5b 0b bd 11 53 d2 bd
       0.005451595 0.012836835 -0.034022648 -0.1026975
000010 9b c3 81 bd 4f d4 24 bc 57 45 3a 3e 57 84 35 bd
       -0.06336137 -0.010060384 0.18190514 -0.044315662
000020 83 83 aa 3d 25 50 aa bd 74 42 b2 bd 8a 33 de 3d
       0.08325865 -0.083160676 -0.08704081 0.10849674
000030 b5 08 14 3e 4b e0 44 3e 35 23 b6 ba 28 0f 27 3c
       0.14456446 0.19226186 -0.001389599 0.010196485
000040 b9 c6 91 3d 33 1a 0e be 69 2a 92 be 35 1c 93 be
       0.071179815 -0.13877182 -0.2854798 -0.28732458
000050 99 54 14 be c4 5a 12 3e 5f 94 91 bd 17 89 93 3d
       -0.14485396 0.14292437 -0.07108378 0.07203882
000060 b7 ae 22 3e 0f 9b 1d bd 39 75 b9 bd 3a 78 72 bd
       0.15886961 -0.038477954 -0.090555616 -0.05919669
000070 2f bc c5 bb 74 d8 52 bd c2 94 12 be 56 7a f5 3d
       -0.006034396 -0.051475957 -0.14314559 0.11986224
000080 fa c4 bb 3d 5d 27 a5 3d 24 2a 4d 3e 3e 69 73 bc
       0.0916843 0.080641486 0.20035607 -0.014856635
000090 a4 42 2f 3d 7d 8a 8e bd d3 70 09 be 47 2c 12 be
       0.042788163 -0.06960008 -0.13421945 -0.14274703
0000a0 8b da d2 3d b7 3d 27 be cf be b4 ba e2 c8 9f bd
       0.1029559 -0.16332136 -0.0013789776 -0.07801987
0000b0 7c 35 ec 3c 87 ef d4 bc f4 19 d6 bd 91 44 8a bd
       0.028834097 -0.025993122 -0.10454169 -0.06751359
0000c0 09 26 14 be 08 59 33 3e 04 ae 32 bd ab 0a 11 bd
       -0.14467634 0.17514431 -0.043622985 -0.035410564
0000d0 5a 9b ae 3d d6 5a 54 3d 6a 3c 35 3d 09 e1 a6 bd
       0.08525725 0.05184444 0.04424707 -0.08148391
0000e0 95 82 81 3d 61 03 bc bc 8a 65 78 bd b2 81 2b be
       0.06323735 -0.02295083 -0.06064371 -0.16748694
0000f0 b2 37 8d bd 0f f3 81 be 2f 84 7a be da 46 cf bd
       -0.06895389 -0.25380751 -0.24464487 -0.10120936
000100 6e b3 6a bd c4 f9 8c bd 31 9e 00 be 32 ee 1e bd
       -0.057300024 -0.068835765 -0.12560345 -0.03880138
000110 8e 48 19 be 84 73 0f 3e 1d 5c 47 3e 34 f9 2c 3d
       -0.14969084 0.1400891 0.19468732 0.042229846
000120 7e 7b 56 bd 89 a8 5d 3e 5a 46 00 3c 42 20 8d 3d
       -0.052363865 0.21646322 0.007829273 0.06890918
000130 24 e0 92 3e 77 98 4b 3d 21 db d3 bc cb d3 f1 bc
       0.2868663 0.04970595 -0.025861325 -0.029519936
000140 41 27 d9 3c 3f 5f 8b bb 9c 3a 01 bd f7 9b ff bd
       0.026507976 -0.0042532976 -0.031550035 -0.1248092
000150 89 a2 59 3e ae 78 78 bd 42 4c 99 bd 9e a1 1e be
       0.21253408 -0.060661964 -0.07485248 -0.1549134
000160 3f 22 aa bd 50 b9 5c bb 0a cf 39 be 2e b2 f0 bb
       -0.08307313 -0.003367979 -0.18145385 -0.0073454594
000170 40 5a 88 3c 5e d9 4a bd c2 5f 20 bd 7a 5e 70 3d
       0.016644597 -0.049523704 -0.03915382 0.05868385
000180 e7 2e 2b 3d e3 64 13 be a3 5b 25 3e 32 0f b8 3d
       0.041792776 -0.14393954 0.16148238 0.08987273
000190 9e 4a 91 3d c3 b3 86 bc 66 e8 a9 3e 8a f4 4c 3e
       0.0709431 -0.016443139 0.33185118 0.20015159
0001a0 b6 67 c5 3d b7 4e 6e 3d 03 60 b4 bd b6 85 ef 3d
       0.09638922 0.058180537 -0.08807375 0.11695425
0001b0 43 c2 b1 3c ee 92 1d 3e 54 81 1b 3e 28 18 89 3e
       0.021699077 0.1538808 0.15186054 0.26776242
0001c0 cd 49 01 3d e9 05 a1 bd ef 63 b3 3d ae 67 b1 bd
       0.031564523 -0.078624554 0.08759295 -0.086623535
0001d0 1a 52 c3 be 13 1c 39 be cb a8 3f 3d 81 3b 88 be
       -0.38148576 -0.18077116 0.046791833 -0.26607898
0001e0 a7 3c b3 be d3 47 30 be a9 61 5a bd 33 28 97 3d
       -0.35007212 -0.17214899 -0.053315792 0.07380714
0001f0 a7 c3 03 bd c5 c4 88 3c e0 53 37 be 61 b5 7d be
       -0.03216901 0.01669539 -0.1790309 -0.24776222
000200 7f ce 99 bd e6 5c 87 3d 88 15 eb 3d c7 62 11 3e
       -0.07510089 0.06609516 0.11478716 0.14197837
000210 8d 69 ec 3b f8 bb f7 3d f6 22 aa bc d6 46 53 be
       0.007214731 0.12096399 -0.020768624 -0.2063249
000220 55 0a c1 bd 52 18 4e bc 5b a9 e9 3d 21 42 81 3c
       -0.09425799 -0.012579041 0.11409255 0.015778603
000230 49 51 f8 3c c5 3a 47 3e 33 2c 92 3d 50 b9 24 3c
       0.030312197 0.19456013 0.071373366 0.010053948
000240 91 f7 b4 bd bf 48 13 bd d1 af c3 39 42 45 06 3e
       -0.08836282 -0.035958048 0.00037324292 0.13112357
000250 05 61 dc 3d 87 d0 d3 bc 3c b9 3f bc f7 88 00 3d
       0.107606925 -0.02585627 -0.011701878 0.03138062
000260 6e dd cd 3d e1 11 e4 3c 3f 71 94 bd f6 bd 19 3c
       0.10052 0.027840557 -0.072481625 0.009383669
000270 f4 c9 1a be b9 e0 81 bd f2 97 06 3e 5b 9a 2c 3e
       -0.15116102 -0.063416906 0.131439 0.16855757
000280 8f 86 b3 3d 7e 0d 4b 3e 11 ea 31 3e 2e 23 85 bd
       0.087658994 0.19829366 0.17374445 -0.065008506
000290 19 12 5c 3d 28 ee 47 bd c2 be 03 be db 8d 80 be
       0.053728197 -0.048811108 -0.12865737 -0.25108227
0002a0 bc 1a 98 3e 8b e2 73 3d dd 7c 28 be 53 5d a8 bc
       0.29707897 0.05954222 -0.16453882 -0.020552313
0002b0 92 e2 3a be 31 3a dc bd 7f fb 14 bd e2 a9 40 3e
       -0.18250492 -0.10753287 -0.036372658 0.18814805
0002c0 94 cc f9 3b 91 79 f0 bd a6 0a c3 3d 1c 62 89 3d
       0.0076232646 -0.11741937 0.095235154 0.06708166
0002d0 41 2b d1 3d 6f a6 b8 3c 28 b2 65 bd fe f0 c6 3c
       0.10213328 0.0225403 -0.056078106 0.024284836
0002e0 ba d6 c1 3d 3f bd da 3b 5c 83 2a bd e8 da 32 3d
       0.09464784 0.006675392 -0.04162918 0.043665797
0002f0 b8 ca 50 3e 63 89 27 3d cf 43 b9 bd c9 ab 07 be
       0.20389831 0.040902507 -0.090461366 -0.13249125
000300 cf be 34 be 9b 6a d0 bd cb d4 35 3e 25 1a 68 3e
       -0.17650913 -0.101765834 0.17756955 0.22666223
000310 26 7b b2 3d 59 19 70 3d d7 f4 87 ba ad f8 e0 bd
       0.08714895 0.058617923 -0.001037265 -0.10984931
000320 b1 7e c1 bd bb d6 70 bd 80 01 f8 bd ec 4c d5 bd
       -0.094479926 -0.058798533 -0.12109661 -0.10415062
000330 15 f7 e2 3c e6 91 54 bd c2 32 2a be f7 a8 a8 be
       0.027705709 -0.051896952 -0.16620925 -0.3294141
000340 bd 4a c1 be b2 f9 7a be ab fd 95 3d 27 1f b6 3d
       -0.37752333 -0.24509314 0.07323774 0.088926606
000350 7f 92 5b 3d 39 64 09 be 1e a7 2f 3e 02 5b 87 3e
       0.053606506 -0.13417138 0.17153594 0.2643662
000360 5d 85 29 3e 44 65 76 3d 20 d1 c5 3d e5 dc 88 3e
       0.1655478 0.06015517 0.09659028 0.2673103
000370 78 8a ac 3c 9c a8 79 be ed 1e 87 3e de b7 e3 3d
       0.02106212 -0.24380726 0.26390782 0.11119054
000380 45 02 cc 3d 78 29 bd 3d 17 2e 5a 3e b2 62 c0 bc
       0.099613704 0.09236425 0.21306644 -0.023484562
000390 77 40 e0 bd da 5d 8a be 0d 88 a7 be c8 86 f2 3d
       -0.10949796 -0.27024728 -0.32720986 0.11842114
0003a0 fc 13 3a 3e 88 fb 25 3e 7e 80 8f 3d f7 c7 e7 ba
       0.18171686 0.16209233 0.0700693 -0.0017683496
0003b0 82 f7 ff bd f9 fc 7a bd 5d 6d de 3a 10 4a e0 3d
       -0.1249838 -0.06127641 0.0016969849 0.10951626
0003c0 27 74 b3 3d da 60 03 3c 7c b6 19 bb 05 ac 48 3d
       0.08762389 0.008018697 -0.0023454716 0.048992176
0003d0 0e d7 8b 3c 0d f0 0c 3e 82 22 5c bc e3 c4 ef 3c
       0.01707032 0.13763447 -0.013435962 0.029268688
0003e0 ad dc e3 bc f0 69 a6 3d 7b a0 c2 3d 08 eb 41 bd
       -0.027815187 0.08125675 0.095032655 -0.047343284
0003f0 e8 a8 89 3d 4f 00 3f 3d b7 c3 29 bc 4d 92 5d bc
       0.067216694 0.046631154 -0.010361603 -0.01352365

bias f4 [96]
000000 87 6a 2c 3d a7 dc 58 3e c5 96 e7 bd d0 1b b0 3d
       0.04209378 0.21177922 -0.11308054 0.08599055
000010 e0 79 a7 bd 93 cc 84 3d 77 37 8a bc a6 1d 70 3d
       -0.08177543 0.06484332 -0.01687215 0.058622025
000020 8c de 19 3e 45 ce aa 3d 17 f7 7a 3e 68 08 9a 3d
       0.15026301 0.08340124 0.2450832 0.075211346
000030 94 e2 b1 3d 24 dd 40 3e 4b 49 06 3e 8a b5 91 3d
       0.086857945 0.18834358 0.13113897 0.07114704
000040 ee 03 aa 3d c5 38 24 be d5 ea bb 3d 9c 5a 97 3d
       0.08301531 -0.16037281 0.0917565 0.07390329
000050 15 16 1e 3e a7 80 0f 3e f6 69 91 ba 10 21 e7 3d
       0.15438111 0.1401392 -0.0011094201 0.11285603
000060 41 7f 11 bd ef 17 e7 bc e4 1c 61 3e 97 1e 85 bc
       -0.03552175 -0.028209655 0.21983677 -0.016249938
000070 f2 d5 b0 3d c6 b7 f8 3d 0a 45 4c 3d 50 20 33 3e
       0.08634557 0.12144427 0.04987053 0.17492795
000080 61 d6 e8 3d e3 d9 72 bc 5f 89 1f be 17 9f 02 be
       0.113690145 -0.014822456 -0.15579747 -0.12756
000090 2d 9e 40 3e d3 08 c8 3d 9d 59 9a bd 7a 0f 38 3d
       0.1881034 0.09767308 -0.075366236 0.044936635
0000a0 9b 25 8b 3d 03 5e 44 3c 19 39 c2 3d 01 4c e4 3d
       0.06794282 0.011985305 0.09483547 0.11147309
0000b0 9d 3b 80 3e 94 a3 f5 bd 84 1c 16 bd 25 64 9a 3d
       0.2504548 -0.11994091 -0.03664829 0.07538632
0000c0 88 d0 d5 bd d7 b8 a7 3b 90 0d 05 bd 55 97 98 3c
       -0.10440165 0.00511847 -0.032483637 0.018626848
0000d0 b9 5c d2 3d 90 fb 09 3e e2 d1 05 be 1a 5e 08 3e
       0.10271592 0.1347487 -0.13068345 0.13317147
0000e0 ae 55 2a 3e 1b f0 72 3e 0c 35 3d 3d bb b4 7e 3d
       0.16634247 0.23724405 0.046193168 0.062184077
0000f0 13 c2 b2 bb b1 a6 08 3e 55 70 fa bc 1a 48 ce 3d
       -0.0054552644 0.13344838 -0.030571142 0.10072346
000100 c9 9c ff bc 64 e6 4b 3d 57 08 46 3d f4 8d 93 3d
       -0.03120269 0.049780264 0.048347797 0.0720481
000110 08 9f 54 3d 43 12 9e 3d 24 55 82 3e 39 ef 6e 3e
       0.051909477 0.07718327 0.25455582 0.23333444
000120 92 26 53 bd eb 8e 94 3d 22 84 f3 3c 4c f3 8a 3e
       -0.051550455 0.07253822 0.029726092 0.27138746
000130 90 2d 1d 3e c3 8c a5 bd d0 40 41 3e 3a cc e3 bc
       0.15349412 -0.08083489 0.1887238 -0.027807344
000140 31 44 d4 3c fc dd 3d 3e 97 b1 ca 3d 00 d2 db 3d
       0.025911422 0.18541712 0.09897154 0.10733414
000150 f1 7b 9a 3d 0c 5d 15 3d 9d 15 1e be 1a d0 37 bd
       0.07543171 0.03646569 -0.15437932 -0.044876195
000160 a7 a3 6a 3e 09 06 ac 3d e9 70 24 bd 2c 4a d2 3c
       0.22913991 0.083995886 -0.040146742 0.025670134
000170 11 7e 0c 3e 9b 6c 5a 3d 7a 8a 4e 3e a8 7b 0d be
       0.13719966 0.05332623 0.20170012 -0.13816702

weight f4 [10, 96]
000000 9d 21 8a be b5 73 23 be ff 37 a5 be 1a c8 0b 3e
       -0.2697877 -0.15962107 -0.32269284 0.13650551
000010 04 c8 1b be 38 84 40 bd c7 ee 8b 3c 49 41 9a 3d
       -0.15213019 -0.047001094 0.017081631 0.075319834
000020 6c 5c b6 3d 9d 3e 5a 3d 5e a5 4c 3e 02 42 57 3d
       0.08904347 0.05328237 0.19984958 0.052553184
000030 59 60 10 3e 18 67 1f be 73 78 38 3d 30 a2 c9 3d
       0.14099254 -0.15566671 0.045036744 0.09845388
000040 8b 17 10 3e 9f 81 5c be 3d 3c 56 be 67 7c e0 3d
       0.14071481 -0.21533822 -0.20921417 0.10961228
000050 07 cf 80 be 7f 9f 19 be e1 2b a8 be 55 4f 98 bd
       -0.2515795 -0.15002249 -0.32845977 -0.074370064
000060 3c 9d 3e 3d 44 26 02 be f8 41 0a 3e ef 8f 14 be
       0.04653667 -0.1270991 0.13501728 -0.14508031
000070 47 f2 a4 be c6 d6 87 3c 5c 1e b2 be ca db 04 3e
       -0.32216093 0.016581904 -0.34788787 0.12974468
000080 31 40 69 be 70 bd 5a bd 83 19 2a bc 29 b3 a8 bd
       -0.22778393 -0.053403318 -0.010382059 -0.08237297
000090 f9 c8 3d 3e a2 94 c9 3d 0b 4b 1d be 07 f0 2c bc
       0.18533696 0.098428026 -0.15360658 -0.010555274
0000a0 df a0 23 3d 3f 7a 47 3e 75 2b 84 be db 78 70 be
       0.03994834 0.19480227 -0.25814405 -0.23483603
0000b0 02 76 6e be a1 1c 3c be 4b bb a3 3c d8 f8 c7 3d
       -0.23287204 -0.18370296 0.01998677 0.0976426
0000c0 bc b8 0c 3b 9d 31 e8 bc f9 cc 63 3d 23 c8 1e be
       0.0021472415 -0.02834397 0.0556154 -0.15506034
0000d0 ac 59 2b 3c d9 23 44 bd 6d 92 17 3e f5 d4 29 3e
       0.010458391 -0.04788575 0.14801951 0.16585143
0000e0 46 f5 4f 3e bd ac 86 be 5e e3 8e bd 53 c1 4c bd
       0.20308408 -0.26303664 -0.069769606 -0.049989056
0000f0 14 51 e3 bd 34 ce 16 3e 7c 46 ca bd 2f 1a 8a bd
       -0.11099449 0.14727098 -0.09876725 -0.067432754
000100 b3 49 8f 3d 17 b0 b9 bb 8e d8 40 be c5 da 0c be
       0.06996479 -0.0056667435 -0.18832609 -0.13755329
000110 00 69 2b bd fe 90 f7 bd c5 6e 16 3e d8 c6 47 be
       -0.041848183 -0.12088202 0.14690693 -0.19509447
000120 21 4d 35 3e 76 fe e1 bd 62 a9 d3 bb fa fe 06 3e
       0.17705204 -0.11034863 -0.006459401 0.13183203
000130 59 db b8 3d 07 5e b4 3d ae 77 31 3d 0a 6d 37 3b
       0.09026212 0.08806997 0.043327026 0.0027988576
000140 17 6a 70 be a1 0c 4a be c0 cb 26 3e b7 7f 85 3e
       -0.2347797 -0.1973138 0.16288662 0.26074
000150 0a 4e dd 3c 56 7a 0a be a5 29 52 be e1 d6 a5 be
       0.027014751 -0.1352323 -0.20523699 -0.32390502
000160 3f 0c 39 3d 9c 3d b3 bd ea c9 a9 3d 09 c5 6d be
       0.045177694 -0.087519854 0.08290465 -0.23219694
000170 eb 13 23 bd c1 c1 c5 be 91 52 23 be 5e 50 ed bd
       -0.039813917 -0.38624385 -0.15949465 -0.115875944
000180 3a fb 25 3e db b9 89 3d 59 e8 5c be d7 c4 92 be
       0.16209117 0.06724902 -0.21573009 -0.28665802
000190 f5 3e 03 be 25 77 b1 3c a6 a9 ab bd 31 e2 28 bd
       -0.12816985 0.021663258 -0.08381967 -0.041231338
0001a0 82 dd 7e be 4d d6 37 be 55 02 23 3e a8 1a 1a bd
       -0.24889186 -0.17952843 0.15918858 -0.037623078
0001b0 ea 2f 1e be c0 6e ef 3d e5 9e 82 3e 40 f7 f9 bd
       -0.15447965 0.11691046 0.25511852 -0.12205362
0001c0 0d d3 0c 3c 93 4a 96 3c 44 88 ce 3d be c3 60 3d
       0.00859524 0.018346107 0.10084584 0.054874174
0001d0 4d 0f 04 3e 0c 15 f7 3d 84 89 08 be 19 23 6a 3d
       0.12896462 0.12064561 -0.13333708 0.057162378
0001e0 1d 71 f5 bc 3c ca dc bd 31 ec 00 3c 52 41 01 bc
       -0.029961163 -0.10780761 0.007868812 -0.007889109
0001f0 af ec 9c bc 54 c0 a6 3d ba cf f4 bc 4b e1 ec 3d
       -0.019155828 0.081421524 -0.029884208 0.11566409
000200 d9 aa f7 bd 08 3f 20 be 3d b7 d8 3d 51 f5 cd be
       -0.120931335 -0.15649045 0.10581825 -0.40226224
000210 dc f7 a6 3d 4f 42 36 be 81 38 28 be dd 83 48 be
       0.08152744 -0.17798732 -0.16427805 -0.19581552
000220 12 5f 1a be 84 44 b0 bd c8 6d ec 3d 85 f1 10 3e
       -0.15075329 -0.08606818 0.115443766 0.14154632
000230 aa 5f 35 3e 21 33 b1 bd f9 7d a9 be 60 70 3c be
       0.17712274 -0.0865233 -0.33103922 -0.18402243
000240 9d ad 80 3b cf 68 1e 3e fa a6 b3 3d 01 aa 71 be
       0.0039269463 0.15469669 0.087720826 -0.23600008
000250 63 df 3e 3e 05 ee 5e 3d 6d 08 ca bd c9 8e 45 be
       0.18639903 0.054426212 -0.09864888 -0.1929275
000260 c0 e3 b8 3b 12 36 07 3e 20 f9 8e 3d 2c fa 21 be
       0.0056423843 0.1320422 0.069811106 -0.15818089
000270 56 1b 4f bd 15 86 90 be 0a f1 be bd 4f 0f 95 bc
       -0.05056318 -0.28227296 -0.09323318 -0.018195776
000280 70 10 7e 3d f0 9c 5d bd a7 76 17 3e 8d 3a 03 3d
       0.062027395 -0.054104745 0.14791356 0.03203826
000290 59 b1 01 be 7e 70 02 3e f7 22 4f 3e f3 a8 5e 3e
       -0.12665309 0.12738225 0.20228182 0.21744137
0002a0 49 98 59 be d7 96 3c 3d a4 62 1b be a9 ef 56 3e
       -0.21249498 0.04604229 -0.15174347 0.2098986
0002b0 e1 78 26 3e a2 95 bb bc 27 7f f0 3d f8 47 bd 3c
       0.16257049 -0.022898499 0.117430024 0.023105606
0002c0 12 30 a5 bd 0f ff 17 3e 11 cd a5 3d d6 0e 2b be
       -0.08065809 0.14843391 0.08095754 -0.16704878
0002d0 10 48 2f be bd d9 25 be 23 28 7f be a4 7c ca 3d
       -0.17117333 -0.16196342 -0.24917655 0.098870546
0002e0 98 bc f7 3d fd fd 29 3d 79 02 7d be 1c 8f 39 be
       0.12096518 0.041501988 -0.24707974 -0.18120998
0002f0 68 c3 c8 3d c4 93 d7 3d 97 73 a0 3d b8 3a 59 3c
       0.09802896 0.10526231 0.07834547 0.013258629
000300 53 28 33 be ac a0 d1 3d 4e 7b 1b be 2c 54 a5 bd
       -0.17495851 0.10235724 -0.15183756 -0.08072695
000310 43 c5 df 3c 0f 0d 4f be fc 8e 88 3d 0c b3 8b 3d
       0.027315741 -0.20219825 0.06667897 0.0682126
000320 a1 49 06 3e 12 5f 04 3e 7f 62 72 3d dd fb e2 3d
       0.13114025 0.12926891 0.059175964 0.11083195
000330 c8 fe 19 be 7e bf 0a 3e d8 84 36 3e fd a9 b1 3d
       -0.15038598 0.13549611 0.17824113 0.08675001
000340 99 08 aa be bd 14 b8 3c ad 2d dd bb 68 97 44 be
       -0.33209684 0.022470826 -0.0067498297 -0.19198382
000350 d1 3c a7 bd 10 39 d2 3d d8 c8 0c 3e 4f f0 42 3d
       -0.08165897 0.1026479 0.13748491 0.047592457
000360 fe e3 ab bd 90 eb 55 bd 90 f1 8f bd 09 79 d2 bd
       -0.083930954 -0.052226603 -0.07028496 -0.10276992
000370 1f e3 56 be 84 f7 d4 3d 5d db 44 be 57 78 a3 be
       -0.20985077 0.10398772 -0.19224305 -0.3192775
000380 fe 67 f7 3d b9 01 d3 3d 5d 71 88 bd 76 ce 86 be
       0.12080382 0.10303063 -0.06662247 -0.26329392
000390 70 3e c9 3d db ea f1 3d 1c ea 1d 3e fe 30 6c be
       0.09826362 0.11812373 0.15421337 -0.23065564
0003a0 55 d7 f1 3d a6 e0 c9 bc ee 13 af 3d e2 1f e9 3d
       0.118086495 -0.024643254 0.08548723 0.11383034
0003b0 4a dc e2 bd 29 f0 46 be 88 4c 9f be 1c e9 09 3e
       -0.11077173 -0.19427551 -0.31113076 0.1346783
0003c0 44 52 82 ba e6 77 f8 bc 74 52 a1 bd ea c8 76 be
       -0.000994273 -0.03033061 -0.07877055 -0.2410008
0003d0 a4 ee 0a be 92 b3 b0 3d 6c 50 0f be 26 7f b1 3d
       -0.13567597 0.08628 -0.13995522 0.0866683
0003e0 77 9e 0a be b4 1a ee 3d be 98 e6 bd 5b 0b 09 3e
       -0.13537012 0.11626187 -0.11259602 0.13383238
0003f0 fa 56 c0 ba e0 d8 e6 3c be d9 fc bd 33 01 39 3e
       -0.0014674359 0.028179586 -0.123462185 0.18066864

bias f4 [10]
000000 49 98 eb 3d cc c8 b3 3d 31 a6 6d 3d 07 e2 e0 bd
       0.115036555 0.08778533 0.05801982 -0.10980611
000010 33 39 12 3c 37 da a2 bd a6 07 06 be 60 58 29 3b
       0.00892477 -0.079517774 -0.13088855 0.002584003
000020 8e cf 61 bd f4 69 82 bd
       -0.05512958 -0.06367865
